models/best_model_lstm.pth (torch, 305405 bytes, 7 tensors)

lstm.weight_ih_l0 f4 [512, 1]
-0.014449628 0.07898176 -0.01756967 0.011065039 0.0043537077 0.06338199 0.009125431 -0.00571398
0.012490549 0.09018843 0.056642402 0.0807326 0.10499219 0.09472452 -0.00773149 0.012850553
0.04783956 0.046936523 0.09571384 0.02385754 -0.042770322 0.07858982 0.08751127 0.103740595
0.06652886 0.023401963 0.018959487 0.12265944 0.10758444 0.03293199 -0.025701342 0.086853586
-0.0126107475 -0.058288015 -0.0045572235 0.030810071 -0.01697221 -0.02992497 0.088270456 -0.018052626
-0.01274566 -0.04290489 0.07051187 0.08270468 -0.0018972906 0.00050947006 0.0048723803 0.080346406
0.06363421 -0.027511604 0.079833664 -0.0041841725 0.010858532 0.07339541 -0.009355481 -0.025509289
0.060079426 -0.032826282 -0.011199377 0.06265094 0.035238303 0.03363409 0.0732218 0.0017470963
0.021747189 0.09425912 0.11821623 -0.029915944 -0.059719898 -0.0022373185 0.07353274 0.10976608
0.04201688 0.05692884 0.011884802 0.011957564 -0.00036171352 0.0075151515 -0.0057435213 0.016492045
0.06677551 -0.009325991 0.045551658 0.044007946 0.07624481 -0.015093931 -0.050569985 -0.000690781
0.07004947 0.08469405 0.11060869 0.01821198 -0.062431492 0.061162867 0.07697311 -0.015905412
-0.04296342 0.07111948 0.037692923 -0.021453235 0.008336328 0.07701492 0.07818744 0.018344052
-0.041708097 -0.036382653 0.024585813 0.027415484 0.08604709 0.00886425 0.07154835 0.10523368
-0.0031030737 0.017053355 -0.013170701 0.08937208 0.01627452 0.04459313 -0.06419099 -0.009093308
-0.008818591 -0.0019654292 0.00388845 0.10431696 0.0039163027 -0.021542864 0.087127104 -0.020179104
0.012554491 -0.040080845 0.031440888 0.0024712016 -0.03306842 -0.00023180773 0.018615538 0.06073759
0.037326273 -0.050250653 0.018238014 0.0758289 -0.039087582 -0.049589053 0.06826173 0.010083357
0.029067405 -0.016177984 -0.013240225 0.11225816 -0.05247953 -0.04204384 0.10569869 -0.0016116136
0.018977707 0.03599791 0.05825192 -0.016910998 0.08308817 -0.020351693 0.022595007 0.0012210144
0.022297926 0.055185053 0.06532187 0.080745816 0.049063344 0.025577184 0.07271205 0.0100818835
0.09694295 0.015536099 -0.002677612 0.015318069 0.06321323 0.093542054 -0.060207956 0.057258368
0.029842846 0.049835674 0.03521661 0.043840535 0.09177998 0.09222566 -0.007814857 0.076647356
-0.039464008 0.014346651 -0.044797 -0.046812177 0.07675955 0.040221717 0.030765668 0.016879437
0.011251777 0.057228606 0.002419782 0.033566795 -0.038952276 0.030474149 0.033377223 -0.04077608
0.058510393 0.09171607 -0.04061755 0.066180594 0.025133016 0.03709295 0.09591424 0.092740886
0.07723403 0.08402166 -0.04567538 0.030505247 -0.009982358 0.023149177 0.077909306 0.022909293
0.043389313 0.06529045 -0.037934806 0.0182152 0.024475645 0.033121917 0.0769251 0.090228096
0.0766576 0.09573198 -0.032616746 0.02453494 0.007331973 0.024219004 0.085551225 -0.006738113
0.008141189 -0.046247132 0.083666965 -0.0009795538 0.05675552 0.05549059 -0.019620528 -0.045469284
0.08127254 0.11193015 -0.048193768 0.018842213 -0.003723516 0.061225817 0.040913276 -0.015515774
0.06705436 0.043502364 -0.022240626 -0.030006047 0.015913632 0.049838275 0.08128479 8.617985e-05
00000000: 22be 6cbc 30c1 a13d 45ee 8fbc 234a 353c
00000010: 8ca9 8e3b 6bce 813d d582 153c 573c bbbb
00000020: 29a5 4c3c b6b4 b83d dd01 683d 2257 a53d
00000030: 2506 d73d eefe c13d 7058 fdbb 208b 523c
00000040: 6af3 433d 8340 403d 9e05 c43d e370 c33c
00000050: ef2f 2fbd b3f3 a03d 1c39 b33d f375 d43d
00000060: 4840 883d 79b5 bf3c ed50 9b3c df34 fb3d
00000070: 3b55 dc3d b2e3 063d 9f8b d2bc 4be0 b13d
00000080: 4f9d 4ebc 6abf 6ebd c354 95bb 6765 fc3c
00000090: 4e09 8bbc 3625 f5bc 24c7 b43d 1ae3 93bc
000000a0: 2cd3 50bc 0abd 2fbd 8768 903d 1261 a93d
000000b0: 82ae f8ba f58d 053a 7da8 9f3b a88c a43d
000000c0: a752 823d 0460 e1bc d57f a33d 621b 89bb
000000d0: fce7 313c 5550 963d bb47 19bc dbf8 d0bc
000000e0: d815 763d da74 06bd 977d 37bc 234f 803d
000000f0: 0a56 103d e6c3 093d 50f5 953d d3fe e43a
00000100: 2927 b23c ed0a c13d 5a1b f23d 4812 f5bc
00000110: da9c 74bd fa9f 12bb 5598 963d 0acd e03d
00000120: e419 2c3d 372e 693d 79b8 423c a9e9 433c
00000130: 5ea4 bdb9 a941 f63b 2634 bcbb 531a 873c
00000140: 99c1 883d 0bcc 18bc 6094 3a3d ad41 343d
00000150: 3d26 9c3d 894c 77bc 7922 4fbd 8715 35ba
00000160: 1976 8f3d 1374 ad3d cf86 e23d 4a31 953c
00000170: 2ab8 7fbd ea85 7a3d 14a4 9d3d 114c 82bc
00000180: 69fa 2fbd 17a7 913d e563 1a3d b2be afbc
00000190: 1895 083c 00ba 9d3d bd20 a03d 4446 963c
000001a0: 1cd6 2abd fa05 15bd 3068 c93c 7096 e03c
000001b0: 7539 b03d 5c3b 113c f187 923d c184 d73d
000001c0: f05c 4bbb 7ab3 8b3c edc9 57bc b608 b73d
000001d0: 2452 853c 49a7 363d 9176 83bd 19fc 14bc
000001e0: da7b 10bc 6ece 00bb 5ed5 7e3b 21a4 d53d
000001f0: 5454 803b a97a b0bc b26f b23d a64e a5bc
00000200: 5ab1 4d3c d02b 24bd 29c8 003d e2f3 213b
00000210: c072 07bd 6a11 73b9 9d7f 983c fbc7 783d
00000220: 6fe3 183d a1d3 4dbd e367 953c 2f4c 9b3d
00000230: 4d1a 20bd e41d 4bbd cecc 8b3d aa34 253c
00000240: c41e ee3c b187 84bc 87ed 58bc 9be7 e53d
00000250: c7f4 56bd 2936 2cbd 8e78 d83d c73c d3ba
00000260: 2377 9b3c 8b72 133d 9199 6e3d ef88 8abc
00000270: 212a aa3d 98b8 a6bc 2a19 b93c 720a a03a
00000280: 24aa b63c b909 623d 79c7 853d 105e a53d
00000290: a5f6 483d 3e87 d13c 0eea 943d 7c2e 253c
000002a0: 068a c63d 1f8b 7e3c e07a 2fbb a3f8 7a3c
000002b0: f075 813d fa92 bf3d 9e9c 76bd c087 6a3d
000002c0: fc78 f43c 7e20 4c3d 4b3f 103d 2292 333d
000002d0: 24f7 bb3d cfe0 bc3d e309 00bc 4af9 9c3d
000002e0: 03a5 21bd 370e 6b3c 0f7d 37bd 20be 3fbd
000002f0: 1c34 9d3d 87bf 243d 4808 fc3c bf46 8a3c
00000300: 6059 383c 8b68 6a3d 3595 1e3b 567d 093d
00000310: 6c8c 1fbd eca4 f93c 8eb6 083d d204 27bd
00000320: 98a8 6f3d a3d5 bb3d 975e 26bd b189 873d
00000330: c1e3 cd3c c7ee 173d af6e c43d efee bd3d
00000340: e02c 9e3d 8c13 ac3d 1b16 3bbd 24e6 f93c
00000350: 0b8d 23bc 58a3 bd3c ea8e 9f3d 45ac bb3c
00000360: feb8 313d 00b7 853d 8761 1bbd 0b38 953c
00000370: 2681 c83c d9aa 073d e88a 9d3d 82c9 b83d
00000380: a9fe 9c3d 210f c43d 2399 05bd 80fd c83c
00000390: 0c41 f03b ef66 c63c 7b35 af3d 63cb dcbb
000003a0: 9f62 053c a26d 3dbd 9659 ab3d 5f64 80ba
000003b0: 7a78 683d 1a4a 633d 3bbb a0bc 003e 3abd
000003c0: 3872 a63d a23b e53d d466 45bd fc5a 9a3c
000003d0: 3b06 74bb ecc7 7a3d ae94 273d df35 7ebc
000003e0: cc53 893d 892f 323d f931 b6bc 3ecf f5bc
000003f0: 4e5d 823c 3823 4c3d a478 a63d 74bb b438

lstm.weight_hh_l0 f4 [512, 128]
0.050546516 -0.1188323 0.077538624 -0.06256636 0.04676351 -0.01577698 -0.02489844 -0.03855882
0.028194109 0.07617045 0.12856644 0.0037782344 0.017606396 -0.027709147 -0.06276614 0.017116508
0.042909466 -0.034695655 -0.12313433 -0.12545317 -0.05373311 0.034667775 -0.09478841 0.008870526
-0.04199906 -0.028178597 0.0716491 0.009805107 -0.098146014 -0.084200345 0.062279157 0.03894425
-0.01561326 -0.08266354 -0.06253635 -0.03718914 -0.011152588 0.019150916 0.042667095 -0.12271574
0.07477591 0.068636745 -0.027192798 -0.013627684 -0.005442279 0.007308814 -0.09667433 -0.027508495
0.05742612 -0.009395549 0.07984052 0.12556992 -0.0529419 0.0009442774 0.010287405 0.12354873
-0.077454574 0.046453122 0.0539943 -0.08073191 0.060257077 -0.089931525 -0.0046823337 -0.09514491
0.01799621 -0.08448595 0.087843195 0.035357643 0.031930458 0.028738394 0.0051000323 0.0355794
0.059132155 -0.043336403 0.13038151 -0.017028555 -0.03256665 -0.1125012 0.031032925 0.099689335
0.11130092 0.058665853 0.07978207 0.040922493 0.025601625 0.012069018 -0.11878468 0.006725324
-0.015882688 0.0017771242 0.0120701585 0.07739978 0.11152941 -0.0047914986 -0.035267014 -0.025356404
0.037716888 -0.04922136 -0.11272603 -0.022888925 0.11012544 -0.07850382 -0.008249722 0.0959888
-0.051583372 -0.02693857 0.094242 0.016060954 -0.09585213 0.09422706 -0.01757108 -0.00015978643
0.0569601 -0.004490954 -0.0339722 -0.018281428 0.02930496 -0.025844028 -0.08701425 0.023710728
-0.1001598 0.037063025 -0.020975588 -0.0010919073 -0.10801004 0.12659976 0.08124218 -0.075159915
-0.05006847 -0.050575178 0.08145024 0.010173206 0.08995877 -0.05068695 -0.062768325 -0.03174906
-0.116543494 0.1153342 0.091453515 0.00067434844 0.03004961 -0.050007988 -0.11454048 -0.06050793
-0.032334115 -0.07730702 -0.009019736 -0.11386378 0.014731699 0.019982487 -0.0392308 0.018955221
-0.08233141 -0.058548745 -0.016660843 0.052682716 -0.069913074 -0.025691958 0.07838096 0.07206165
0.09162111 -0.08014542 0.018645436 -0.03555982 0.034591004 -0.06089684 -0.038770672 -0.0999942
0.076365024 -0.056368683 -0.058925465 0.0013871775 0.09117966 0.11998644 -0.058415 0.045496218
0.001500995 -0.022730293 0.036268685 -0.01805491 -0.03341436 0.030947749 0.023700899 0.018260386
0.050283354 0.045530327 0.06444763 0.0034320152 0.119069435 0.021643108 -0.08409623 -0.113803014
-0.11786299 0.036414128 -0.048021648 -0.10259201 0.087779015 -0.090853326 0.06299536 -0.026679646
0.027588207 0.018918244 -0.039686866 0.013785438 -0.0850847 -0.023805441 -0.030061573 -0.009003338
0.0400746 0.04656787 0.062779345 0.056432843 -0.016599722 0.020184582 -0.003240085 0.029155906
-0.049974423 -0.09386069 0.021014642 0.12197356 0.026420377 -0.020340694 0.07061443 0.01880766
0.021183155 -0.017993372 -0.10981476 0.09796102 -0.014290906 -0.11363198 -0.08455161 -0.051407073
0.015414122 -0.066943906 0.046661094 -0.03173945 0.040852193 -0.035108972 0.03629378 0.011227752
-0.010652002 0.051062863 -0.10067133 -0.115392484 0.036030475 -0.04902228 0.008859049 0.044876266
0.019698175 0.077763945 -0.07291822 0.09449426 -0.07032187 0.0067873923 0.08059987 -0.08207174
00000000: dd09 4f3d 595e f3bd 92cc 9e3d cb22 80bd
00000010: 188b 3f3d ba3e 81bc d0f7 cbbc daef 1dbd
00000020: 55f7 e63c 41ff 9b3d eca6 033e 419c 773b
00000030: 4a3b 903c 4bfe e2bc 898b 80bd eb37 8c3c
00000040: d6c1 2f3d 081d 0ebd da2d fcbd cc76 00be
00000050: 4017 5cbd ccff 0d3d 6d20 c2bd af55 113c
00000060: 3507 2cbd cdd6 e6bc c3bc 923d 99a5 203c
00000070: c700 c9bd 3b71 acbd 6e18 7f3d 0284 1f3d
00000080: c2ce 7fbc 814b a9bd 0f13 80bd a453 18bd
00000090: 58b9 36bc 62e2 9c3c b1c3 2e3d 6452 fbbd
000000a0: 1d24 993d 6c91 8c3d 6ec3 debc a646 5fbc
000000b0: 2555 b2bb c77e ef3b 31fd c5bd 7f59 e1bc
000000c0: a737 6b3d caef 19bc 6d83 a33d 6795 003e
000000d0: 9bd9 58bd 6289 773a 818c 283c 1e07 fd3d
000000e0: 81a0 9ebd a145 3e3d 2129 5d3d c656 a5bd
000000f0: 20d0 763d 052e b8bd 436e 99bb 56db c2bd
00000100: ca6c 933c f806 adbd 22e7 b33d 2dd3 103d
00000110: 83c9 023d c86c eb3c 2c1e a73b b4bb 113d
00000120: 8f34 723d 8381 31bd bb82 053e 787f 8bbc
00000130: 9c64 05bd 0767 e6bd c338 fe3c ec29 cc3d
00000140: bdf1 e33d 9b4b 703d c864 a33d 589e 273d
00000150: 80ba d13c 21bd 453c 6245 f3bd 1b60 dc3b
00000160: 691c 82bc 65ee e83a eac1 453c c783 9e3d
00000170: 8869 e43d 0102 9dbb 2574 10bd 3cb8 cfbc
00000180: 067d 1a3d 569c 49bd e8dc e6bd 8e81 bbbc
00000190: 7289 e13d 9cc6 a0bd d829 07bc c795 c43d
000001a0: 1649 53bd 47ae dcbc f301 c13d 4392 833c
000001b0: 1f4e c4bd 1efa c03d 3af1 8fbc 588c 27b9
000001c0: fe4e 693d da28 93bb 6f26 0bbd efc2 95bc
000001d0: f510 f03c dbb6 d3bc 8734 b2bd 003d c23c
000001e0: 9520 cdbd 66cf 173d ffd4 abbc 541e 8fba
000001f0: 5e34 ddbd 5ea3 013e 4d62 a63d 71ed 99bd
00000200: 9914 4dbd eb27 4fbd 62cf a63d 85ad 263c
00000210: 4e3c b83d 1f9d 4fbd ae8c 80bd 4d0b 02bd
00000220: 5bae eebd 5634 ec3d fb4b bb3d c2c6 303a
00000230: 9a2a f63c 2dd5 4cbd 3394 eabd 2ad7 77bd
00000240: c770 04bd 2553 9ebd 84c7 13bc 6a31 e9bd
00000250: 395d 713c 50b2 a33c 7ab0 20bd fb47 9b3c
00000260: 5f9d a8bd cfd0 6fbd 527c 88bc d5c9 573d
00000270: 962e 8fbd f177 d2bc 3286 a03d 0f95 933d
00000280: d9a3 bb3d 4823 a4bd 50be 983c 2ca7 11bd
00000290: 4caf 0d3d f76e 79bd ffcd 1ebd c2c9 ccbd
000002a0: 4465 9c3d d9e2 66bd d45b 71bd f4d1 b53a
000002b0: 67bc ba3d 73bb f53d 9144 6fbd 3e5a 3a3d
000002c0: 09bd c43a e134 babc 798e 143d e4e7 93bc
000002d0: 7fdd 08bd 2286 fd3c 6328 c23c ce96 953c
000002e0: ebf5 4d3d 027e 3a3d 1efd 833d a9eb 603b
000002f0: adda f33d e34c b13c a53a acbd 8e11 e9bd
00000300: 2762 f1bd fb26 153d 59b2 44bd c21b d2bd
00000310: 7cc5 b33d 4f11 babd b603 813d 468f dabc
00000320: aa00 e23c 6ffa 9a3c b28e 22bd 51dc 613c
00000330: e340 aebd a103 c3bc b043 f6bc bd82 13bc
00000340: 4425 243d f3bd 3e3d 7592 803d 2026 673d
00000350: 24fc 87bc 235a a53c 9b57 54bb 5ed8 ee3c
00000360: fbb1 4cbd 093a c0bd e626 ac3c 46cd f93d
00000370: 8c6f d83c 87a1 a6bc 4c9e 903d 8612 9a3c
00000380: 4c88 ad3c d666 93bc 90e6 e0bd ca9f c83d
00000390: 6724 6abc e2b7 e8bd 6529 adbd 3990 52bd
000003a0: 838b 7c3c e319 89bd b41f 3f3d 3a01 02bd
000003b0: a154 273d 6dce 0fbd c9a8 143d 9bf4 373c
000003c0: bc85 2ebc 4b27 513d c52c cebd e552 ecbd
000003d0: b194 133d 96cb 48bd 8b25 113c 2dd0 373d
000003e0: 115e a13c b442 9f3d 2656 95bd 3586 c13d
000003f0: ea04 90bd c668 de3b 8b11 a53d 3a15 a8bd

lstm.bias_ih_l0 f4 [512]
-0.0068729767 0.038910594 -0.031184271 0.034374885 0.11834071 0.04445183 -0.008000817 0.054896697
0.021923402 0.014891788 0.018414907 0.07758454 0.048505817 0.05345704 0.11746071 0.08480394
0.03177427 0.050765947 0.0562702 0.010866159 -0.048419725 0.08699647 0.09947637 -0.04517073
0.0650341 0.027368812 -0.04144183 -0.002852572 0.043266624 -0.04376531 0.11211924 0.08993308
-0.034365866 0.029413262 0.110663995 0.10049288 -0.032451987 0.06970518 0.0061567277 0.06548835
0.07604718 -0.013098568 0.10170646 -0.053714648 0.022547795 0.08403144 -0.009125238 0.065091565
0.08701147 0.0054709315 -0.035258662 0.06342815 -0.020117093 0.09096688 0.08214179 -0.013336867
0.09260378 0.10318912 0.046529982 0.033461485 -0.013394869 -0.046867028 0.025441898 0.12053996
-0.00044225034 -0.044743076 -0.05881842 0.039424077 0.034498047 -0.012457565 0.0165457 0.08815321
-0.01175627 -0.030456306 0.07078183 -0.04531812 0.05839671 0.12193585 -0.00072251074 0.006263777
0.08377436 0.012820694 0.026752185 -0.010036886 0.1164181 0.10954253 0.046042196 0.0051305294
0.042877097 -0.016937032 0.04894754 0.10640402 0.0553857 0.09587307 0.005931215 0.100162566
0.07680859 0.017361442 0.036208265 -0.032732073 -0.030968485 0.00089361775 0.029532818 0.0999682
0.019578435 0.088771336 0.011094222 0.11330334 -0.059992183 -0.044048343 -0.004485712 0.009655415
0.03769674 0.057310972 0.008518584 -0.030260745 0.08309595 0.11030962 -0.051699173 0.068646155
0.07395158 -0.039260138 0.036733247 0.012116863 0.064338006 -0.029307233 -0.036776695 -0.034534656
0.004098457 0.04395686 -0.011282784 0.015238026 0.10055561 0.10313948 0.09571912 -0.041979343
-0.00875815 -0.05126484 0.048338626 0.0023827846 0.074251436 0.0701395 0.05510698 0.014305609
0.09484852 0.04183245 0.019601919 0.00033265795 -0.0359684 -0.017294683 0.009794289 0.00671206
-0.028624298 -0.027658058 0.02717603 -0.021934768 0.039317485 -0.03768163 0.091914676 -0.03408774
0.07931309 0.07934324 0.01951155 -0.053535253 -0.022405438 -0.0052216635 0.014511014 0.11278269
0.04275059 0.059710737 -0.030234138 -0.057022158 0.026514761 0.11377159 0.006915357 -0.0009423787
-0.0045233737 -0.053880997 -0.035818804 0.07292035 0.02438915 0.011805 -0.026069451 0.06974672
-0.034019567 -0.005616292 0.018656416 0.011726383 0.06371443 0.004422345 0.023582902 0.039198022
-0.053865213 0.013497107 0.10510964 0.03305072 0.11481767 0.060459096 -0.016764808 -0.07259384
0.0983941 -0.042101927 0.0061233607 0.11192602 0.083494045 0.116055936 -0.04560576 0.029082485
-0.05011474 0.06498763 0.034088496 -0.03839845 0.0012672994 -0.0100444285 -0.0052607544 -0.050186414
0.03963061 -0.0078005283 0.11359091 -0.0033587066 -0.03155559 -0.024028163 0.02849859 0.0010941847
0.0010500812 -0.05202558 0.05662509 -0.0038152414 -0.002911922 0.06612152 0.03675112 0.038085118
0.04321707 -0.05277988 0.10165038 -0.025082061 0.021761442 -0.008368928 -0.07183737 0.0773765
-0.01339304 0.06442987 -0.043118574 -0.0488199 0.076321974 0.10924884 -0.0035976658 -0.028275993
0.005654678 0.10244927 0.011664347 0.04265343 0.050441783 0.07843433 -0.026469767 -0.009567836
00000000: b536 e1bb b760 1f3d 2876 ffbc aecc 0c3d
00000010: 9d5c f23d 1f13 363d dc15 03bc 5cdb 603d
00000020: b598 b33c b0fc 733c dcda 963c a5e4 9e3d
00000030: 09ae 463d c5f5 5a3d 3e8f f03d b0ad ad3d
00000040: bd25 023d f4ef 4f3d 957b 663d f907 323c
00000050: c353 46bd 352b b23d 44ba cb3d f204 39bd
00000060: 9930 853d 8f34 e03c e9be 29bd 37f2 3abb
00000070: 5838 313d 4143 33bd c69e e53d d62e b83d
00000080: 39c3 0cbd 15f4 f03c cea3 e23d 36cf cd3d
00000090: 60ec 04bd 97c1 8e3d 60be c93b c21e 863d
000000a0: a0be 9b3d 609b 56bc 7a4b d03d e403 5cbd
000000b0: 27b6 b83c ad18 ac3d 0682 15bc ba4e 853d
000000c0: 1233 b23d 8045 b33b 636b 10bd 9ee6 813d
000000d0: 9acc a4bc d84c ba3d f439 a83d e082 5abc
000000e0: 0da7 bd3d d154 d33d 3996 3e3d e90e 093d
000000f0: 2776 5bbc a4f7 3fbd 876b d03c a8dd f63d
00000100: d6dd e7b9 8444 37bd 95eb 70bd 247b 213d
00000110: d34d 0d3d d11a 4cbc d98a 873c ac89 b43d
00000120: 5f9d 40bc 817f f9bc 10f6 903d 7e9f 39bd
00000130: 6331 6f3d 81b9 f93d e066 3dba 5f40 cd3b
00000140: e491 ab3d e30d 523c 6627 db3c c071 24bc
00000150: 9d6c ee3d d557 e03d be96 3c3d 001e a83b
00000160: e59f 2f3d 88bf 8abc 377d 483d 5aea d93d
00000170: 1edc 623d 1a59 c43d a35a c23b 0822 cd3d
00000180: d24d 9d3d 9539 8e3c 1e4f 143d 1112 06bd
00000190: 9fb1 fdbc ac41 6a3a cfee f13c 21bc cc3d
000001a0: f462 a03c bfcd b53d 8ac4 353c 950b e83d
000001b0: 5dba 75bd 096c 34bd e1fc 92bb bf31 1e3c
000001c0: e667 1a3d e9be 6a3d 8891 0b3c 62e5 f7bc
000001d0: 362e aa3d 03ea e13d 83c2 53bd 5b96 8c3d
000001e0: ed73 973d 3dcf 20bd 9a75 163d cf85 463c
000001f0: a5c3 833d b915 f0bc 29a3 16bd 3674 0dbd
00000200: 594c 863b 1c0c 343d 6ddb 38bc eaa8 793c
00000210: 1af0 cd3d cb3a d33d 6308 c43d 88f2 2bbd
00000220: 587e 0fbc 15fb 51bd b9fe 453d 7e28 1c3b
00000230: 2311 983d 4ca5 8f3d dbb7 613d 1362 6a3c
00000240: f13f c23d 8158 2b3d 3494 a03c 9868 ae39
00000250: 9a53 13bd 94ad 8dbc 3a78 203c d7f0 db3b
00000260: 817d eabc 2793 e2bc 44a0 de3c 8bb0 b3bc
00000270: 5f0b 213d 0e58 1abd c33d bc3d 969f 0bbd
00000280: e76e a23d b57e a23d b0d6 9f3c c847 5bbd
00000290: 9c8b b7bc 7d1a abbb 9bbf 6d3c 9cfa e63d
000002a0: 3e1b 2f3d 3f93 743d 95ad f7bc 1190 69bd
000002b0: 7c35 d93c 1401 e93d 389a e23b f709 77ba
000002c0: cf38 94bb 52b2 5cbd bdb6 12bd 4457 953d
000002d0: c1cb c73c c269 413c 9a8f d5bc 5ed7 8e3d
000002e0: 1a58 0bbd df08 b8bb 57d5 983c 0420 403c
000002f0: b67c 823d 52e9 903b ee30 c13c 1b8e 203d
00000300: c5a1 5cbd f822 5d3c b943 d73d 3160 073d
00000310: 8725 eb3d f5a3 773d 5a56 89bc 14ac 94bd
00000320: d982 c93d 1273 2cbd 79a6 c83b 7839 e53d
00000330: edfe aa3d bcae ed3d 1bcd 3abd 643e ee3c
00000340: 1d45 4dbd 3c18 853d 61a0 0b3d b147 1dbd
00000350: 831b a63a 6391 24bc 6862 acbb 4590 4dbd
00000360: b553 223d 939b ffbb 5aa2 e83d bf1d 5cbb
00000370: 6f40 01bd b6d6 c4bc e075 e93c bf6a 8f3a
00000380: e1a2 893a c618 55bd b6ef 673d 2109 7abb
00000390: f2d5 3ebb b86a 873d 5888 163d 24ff 1b3d
000003a0: 6204 313d b72f 58bd 132e d03d e578 cdbc
000003b0: 0d45 b23c d41d 09bc 791f 93bd 9277 9e3d
000003c0: 7b6e 5bbc cff3 833d 1a9d 30bd 60f7 47bd
000003d0: b24e 9c3d dbbd df3d d1c6 6bbb 0ea3 e7bc
000003e0: e14a b93b ecd0 d13d d11b 3f3c 5db5 2e3d
000003f0: 0b9c 4e3d 2ea2 a03d 20d7 d8bc 6ac2 1cbc

lstm.bias_hh_l0 f4 [512]
0.03568916 0.095825285 -0.014095877 0.041362483 0.013911159 0.11702376 0.11426321 0.003840781
0.039029993 -0.0029100648 0.103359 0.016517377 -0.007120798 0.06787668 0.0647679 0.020587645
0.06963788 0.0038504517 -0.005934982 -0.04886047 -0.048854064 0.01186481 -0.041684147 0.0122015225
0.098036736 0.08540755 0.10723266 0.052561305 -0.021285307 0.10261572 0.06853427 -0.0031544322
-0.026334556 0.009241729 0.09004609 0.014067915 -0.045147985 0.10326868 0.11951559 0.06660547
-0.027142247 0.028675288 0.080051586 0.011604734 0.09886362 0.06841072 0.09557005 0.06651039
0.01338744 0.11773762 -0.024040254 0.09662477 0.0049224603 0.010234207 0.09076285 -0.008569124
-0.043593615 0.0016341557 -0.014944801 0.015431633 0.0178559 0.06033196 0.06798533 -0.033018995
-0.058399525 0.08335137 -0.049789436 -0.019688489 0.07943703 0.014099697 0.060121275 -0.053793475
0.017223606 -0.010493732 0.07392242 0.051260073 0.12078722 0.097838625 0.061938737 -0.04188483
0.08971023 0.099401645 0.039867774 0.013000714 0.06002511 0.034655664 0.010219593 -0.010641313
-0.02771697 0.075013965 -0.0018077203 0.103943564 -0.03865143 0.010730424 0.087070756 0.038094815
-0.057997946 0.045073513 0.04831788 -0.0412102 -0.05376079 -0.020087192 -0.03639097 0.08355112
0.047717813 0.087740086 0.065950535 0.11738945 -0.003907942 0.040193222 0.031471267 0.03412779
-0.0012373634 -0.012545686 0.02622335 0.046837132 -0.0055969455 -0.034465805 -0.020744575 0.106261
0.0133270165 0.03968762 -0.009138257 0.10554955 -0.025673725 0.061279494 -0.04550349 0.049062558
0.003296533 -0.007988013 -0.047588687 0.102304615 -0.049667113 0.057851814 0.07313833 0.041633964
0.024536332 -0.04520568 0.0070168325 0.080591775 0.08241865 -0.031088203 0.11962518 -0.04523678
0.110221185 0.0027899223 -0.009494062 -0.061563645 0.111283116 -0.02374759 0.0051302887 0.059418138
0.038504634 -0.0059459787 0.03770448 0.071418695 0.028107787 -0.009272254 0.05573757 0.02650508
0.05146509 -0.04760944 -0.041756306 0.017240424 0.027666759 0.027708396 0.0342531 0.061527725
-0.040653378 -0.064406306 -0.013109296 0.11859977 0.03849266 0.07351025 0.021862041 0.0058908756
0.07388638 0.083432674 0.004371031 -0.026820315 0.02643074 0.043967903 -0.02327757 0.041312516
0.073956996 0.10180113 0.112199 -0.04851892 0.05042528 -0.04448153 -0.03598319 -0.016942345
-0.04429488 -0.0140028875 0.00837036 0.11600472 0.008009363 0.01805828 0.101162404 0.027125504
0.01613177 0.098494895 0.0812793 0.027703416 0.04238495 0.06728517 0.036554467 -0.028145494
-0.039332353 0.082891844 -0.03137536 0.013599782 -0.010297707 0.05490273 0.08945542 0.0058753714
0.057985082 0.08323477 0.059070703 0.074648954 0.06250294 0.058624323 0.082123406 -0.037484232
-0.036654957 0.025230791 -0.014244631 -0.05356428 0.0336878 0.033402562 0.08217043 0.014019328
0.042318374 0.055439923 0.058953196 -0.018671967 0.006660451 -0.0003151394 0.056059614 0.037044086
0.061259165 -0.057202246 0.09691946 0.07054559 0.07502313 -0.035637192 -0.023820708 0.021926071
0.07559964 0.07444899 -0.015345753 0.07825148 -0.024734695 -0.0008939365 -0.05217622 -0.03733428
00000000: cc2e 123d 0c40 c43d 65f2 66bc b56b 293d
00000010: a1eb 633c 27aa ef3d d402 ea3d 9db5 7b3b
00000020: eadd 1f3d c9b6 3ebb e2ad d33d 734f 873c
00000030: 9555 e9bb ee02 8b3d 08a5 843d 6ca7 a83c
00000040: 4e9e 8e3d dc57 7c3b 3d7a c2bb eb21 48bd
00000050: 331b 48bd 9f64 423c ffbc 2abd e5e8 473c
00000060: 7cc7 c83d 27ea ae3d cc9c db3d 864a 573d
00000070: 865e aebc 3128 d23d b25b 8c3d 97ba 4ebb
00000080: 91bb d7bc 9f6a 173c 166a b83d 1d7d 663c
00000090: 18ed 38bd 887e d33d 97c4 f43d 7368 883d
000000a0: 6b59 debc 70e8 ea3c 16f2 a33d c821 3e3c
000000b0: 0279 ca3d eb1a 8c3d 3bba c33d 9936 883d
000000c0: fe56 5b3c 6c20 f13d 11f0 c4bc 35e3 c53d
000000d0: 974c a13b 60ad 273c e0e1 b93d 8365 0cbc
000000e0: 388f 32bd 2b31 d63a 0adb 74bc f6d4 7c3c
000000f0: 8946 923c a51e 773d e53b 8b3d ed3e 07bd
00000100: 5734 6fbd 20b4 aa3d 02f0 4bbd c149 a1bc
00000110: e2af a23d 6a02 673c ba41 763d 8c56 5cbd
00000120: 8518 8d3c e7ed 2bbc a364 973d 15f6 513d
00000130: 4a5f f73d 9e5f c83d 79b3 7d3d 6d8f 2bbd
00000140: ffb9 b73d 1793 cb3d 644c 233d f200 553c
00000150: e4dc 753d 19f3 0d3d 1470 273c e758 2ebc
00000160: b30e e3bc eca0 993d 07f1 ecba 5de0 d43d
00000170: f650 1ebd a9ce 2f3c 2752 b23d 4f09 1c3d
00000180: 418f 6dbd 019f 383d f8e8 453d 07cc 28bd
00000190: 4634 5cbd e58d a4bc b30e 15bd d91c ab3d
000001a0: c173 433d 13b1 b33d 1311 873d e169 f03d
000001b0: 320e 80bb a6a1 243d 04e8 003d 95c9 0b3d
000001c0: 072f a2ba 6c8c 4dbc 5ad2 d63c 4bd8 3f3d
000001d0: 9566 b7bb 042c 0dbd 87f0 a9bc 5e9f d93d
000001e0: 8f59 5a3c 7c8f 223d a1b8 15bc 5d2a d83d
000001f0: b451 d2bc 3500 7b3d de61 3abd d2f5 483d
00000200: a50a 583b 28e0 02bc 5bec 42bd 1585 d13d
00000210: be6f 4bbd 06f6 6c3d 8cc9 953d 6088 2a3d
00000220: 6b00 c93c 9729 39bd 75ed e53b 4d0d a53d
00000230: 1ccb a83d b0ac febc 0cfe f43d 344a 39bd
00000240: a5bb e13d 21d7 363b fb8c 1bbc 292a 7cbd
00000250: 67e8 e33d 4e8a c2bc fb1b a83b 6f60 733d
00000260: 09b7 1d3d 7cd6 c2bb 0370 1a3d f743 923d
00000270: 4d42 e63c a7ea 17bc 144d 643d 2e21 d93c
00000280: 0fcd 523d 1e02 43bd a908 2bbd ca3b 8d3c
00000290: 66a5 e23c b8fc e23c fb4c 0c3d 7f04 7c3d
000002a0: 2884 26bd 74e7 83bd 5fc8 56bc 70e4 f23d
000002b0: 7baa 1d3d 8b8c 963d 0618 b33c 3f08 c13b
000002c0: be51 973d c0de aa3d de3a 8f3b 47b6 dbbc
000002d0: 4785 d83c b017 343d 9ab0 bebc 5037 293d
000002e0: c476 973d 1c7d d03d 97c8 e53d c6bb 46bd
000002f0: bd8a 4e3d 4432 36bd 1c63 13bd acca 8abc
00000300: 8c6e 35bd 5e6c 65bc d623 093c e293 ed3d
00000310: b439 033c f5ee 933c 3c2e cf3d 4e36 de3c
00000320: c626 843c b1b7 c93d c375 a63d 46f2 e23c
00000330: d79b 2d3d cfcc 893d 23ba 153d 6191 e6bc
00000340: f61a 21bd 33c3 a93d 7383 00bd 9fd1 5e3c
00000350: b7b7 28bc afe1 603d 6734 b73d 3086 c03b
00000360: c481 6d3d fe76 aa3d 1ff4 713d 8de1 983d
00000370: 8b01 803d 0f20 703d 5130 a83d 1189 19bd
00000380: 8223 16bd ceb0 ce3c 5062 69bc 3866 5bbd
00000390: 38fc 093d 20d1 083d f848 a83d 53b1 653c
000003a0: 0856 2d3d f914 633d e878 713d f4f5 98bc
000003b0: ea3f da3b 4b39 a5b9 c49e 653d 8abb 173d
000003c0: e4ea 7a3d e74c 6abd b67d c63d 357a 903d
000003d0: baa5 993d 4ef8 11bd a523 c3bc 4e9e b33c
000003e0: fcd3 9a3d b678 983d c16c 7bbc 5042 a03d
000003f0: 6aa0 cabc 1057 6aba bbb6 55bd d4eb 18bd

fc.0.weight f4 [64, 128]
0.029258087 0.007583154 -0.053062532 0.026655765 -0.015950391 -0.032216776 0.06335874 -0.04306836
-0.012519913 0.06103439 0.0043383907 0.09141329 0.014900703 -0.06435664 0.035736118 0.0030465901
-0.06730921 0.0037583404 0.028100915 0.08775062 -0.03553162 0.041326668 0.065951206 -0.04013404
0.06845773 -0.0004836366 -0.0062681083 -0.049607195 -0.05983655 0.0069249836 0.049407616 0.06633937
-0.03889696 -0.026284209 -0.05140479 0.028118389 -0.07395309 0.015998617 -0.06573011 0.021721007
-0.08198119 -0.047369525 0.038514186 -0.035450492 -0.07364589 0.06012299 0.008665852 -0.03160156
-0.0018480229 0.036122646 0.008610767 -0.032232124 0.038131624 -0.047775436 -0.037881903 0.05631285
0.08894277 -0.047140747 0.05118188 0.08093075 0.04999443 0.06692584 0.06934539 0.05401388
0.025696522 0.06664333 0.0067066154 0.079403326 0.02582913 0.07969031 -0.07730387 -0.05488376
0.050324325 0.021352518 0.038688518 -0.090679504 -0.005637334 0.03631296 0.006324047 0.076802425
-0.077518225 -0.060948286 -0.021135828 -0.040207352 -0.07814552 -0.0066157803 -0.007942069 -0.040314652
0.0098965345 -0.01027429 0.024389628 -0.03603676 0.065959275 -0.056964148 -0.06124626 0.0019532873
0.08544745 -0.043864228 -0.014498434 0.073282056 -0.024987869 0.040584993 0.017430965 -0.06915108
0.009926503 0.09343233 0.036839202 0.073315695 0.07634852 -0.013764738 0.08149258 0.10062278
-0.08965364 -0.002776353 -0.070364326 0.08778267 0.072958075 -0.016666353 0.0446991 0.07277357
-0.03530954 -0.09408942 -0.068104655 0.013844269 0.0236241 -0.10153891 0.030007398 -0.029490562
-0.025496999 -0.015233335 0.05306362 0.08386437 -0.028608648 0.0850556 -0.0685294 -0.07270955
0.08447305 0.06051439 -0.036708556 -0.066620596 -0.047943663 -0.006745308 0.08367539 0.05666415
0.054718472 0.04950808 -0.0005440526 0.056629896 0.0862082 -0.049382567 -0.050024588 0.055413663
-0.085671835 -0.04380518 -0.056947786 -0.032942522 -0.05648846 0.08665985 -0.012286554 -0.082779095
0.087117605 0.065925255 -0.04388181 0.0009500953 -0.018024763 0.062086437 0.07657315 -0.0794243
0.07636358 -0.007743103 0.07205856 0.080358215 0.082146324 -0.01589876 0.0874928 0.06744181
-0.05121057 0.08504414 0.035631355 -0.08394048 0.06011071 0.04333697 0.06304471 0.051840086
0.06626391 0.08304158 -0.0036642787 -0.040383685 0.0282769 -0.08389121 0.058915436 0.06472005
-0.06556122 -0.054998655 -0.020286953 0.04673117 0.012414891 0.080471806 -0.008740403 -0.03128884
-0.0070334557 0.02575323 -0.06940784 -0.036126833 -0.048017945 0.07162138 0.05607048 -0.018429004
-0.0015741847 0.04040395 0.059255593 -0.06783946 -0.06702289 -0.084391244 0.012022568 -0.062281977
0.08469269 -0.055849515 0.050228834 -0.06947402 0.030516962 -0.027997581 0.04213547 -0.06484073
0.07568449 -0.041513793 -0.0044168737 -0.08602257 0.011455365 0.06340804 0.040975135 -0.034957744
-0.032197874 -0.073942 -0.049649376 0.007606642 -0.027993282 0.08492544 0.053967774 -0.043882318
-0.08545515 0.07780321 0.019097505 -0.021810688 -0.058220107 -0.08504555 -0.08760245 -0.037174575
-0.048266992 -0.01930706 -0.012431339 0.015531482 0.04839007 0.005362038 -0.05504037 -0.05579489
00000000: a8ae ef3c 1b7c f83b 1958 59bd 315d da3c
00000010: 65aa 82bc bdf5 03bd 3ac2 813d 7368 30bd
00000020: 5220 4dbc 32ff 793d 0f29 8e3b e436 bb3d
00000030: 1422 743c 6acd 83bd 0960 123d 4da9 473b
00000040: 69d9 89bd 7d4e 763b e433 e63c 99b6 b33d
00000050: 9b89 11bd 2746 293d 6d11 873d 9763 24bd
00000060: 9133 8c3d 9b90 fdb9 b464 cdbb ea30 4bbd
00000070: 2c17 75bd f9ea e23b a45f 4a3d f0dc 873d
00000080: 6b52 1fbd fb51 d7bc d48d 52bd 8958 e63c
00000090: b874 97bd 880f 833c 829d 86bd 41f0 b13c
000000a0: c1e5 a7bd 8c06 42bd 0dc1 1d3d 8934 11bd
000000b0: a8d3 96bd 8643 763d 38fb 0d3c a370 01bd
000000c0: 5c39 f2ba 57f5 133d 2d14 0d3c d505 04bd
000000d0: e82f 1c3d 2db0 43bd 0e2a 1bbd 4ea8 663d
000000e0: a127 b63d a816 41bd 17a4 513d 05bf a53d
000000f0: f6c6 4c3d 6a10 893d f504 8e3d a93d 5d3d
00000100: 8381 d23c 4c7c 883d 2bc3 db3b 369e a23d
00000110: 9d97 d33c ac34 a33d 7e51 9ebd cbcd 60bd
00000120: e120 4e3d 7aeb ae3c da77 1e3d 2db6 b9bd
00000130: 63b9 b8bb e6bc 143d f439 cf3b 974a 9d3d
00000140: e0c1 9ebd e9a4 79bd 0b25 adbc 77b0 24bd
00000150: c20a a0bd 30c9 d8bb 741f 02bc fa20 25bd
00000160: 1325 223c 7f55 28bc c2cc c73c 489b 13bd
00000170: a815 873d 3d53 69bd 5cdd 7abd b902 003b
00000180: 13ff ae3d faaa 33bd d78a 6dbc e714 963d
00000190: 5cb3 ccbc 733c 263d 62cb 8e3c 159f 8dbd
000001a0: c5a2 223c 7359 bf3d b4e4 163d 8a26 963d
000001b0: 9d5c 9c3d 7f85 61bc 95e5 a63d 5113 ce3d
000001c0: 549c b7bd 79f3 35bb 2c1b 90bd 67c7 b33d
000001d0: 0b6b 953d e087 88bc 6716 373d 4f0a 953d
000001e0: bca0 10bd f4b1 c0bd 747a 8bbd 13d3 623c
000001f0: 5487 c13c a2f3 cfbd 13d2 f53c 3196 f1bc
00000200: 15df d0bc 3d95 79bc 3d59 593d 15c1 ab3d
00000210: af5c eabc a131 ae3d 2459 8cbd bfe8 94bd
00000220: 3500 ad3d f0dd 773d b65b 16bd 6170 88bd
00000230: 9360 44bd bf07 ddbb 015e ab3d ab18 683d
00000240: 7a20 603d fcc8 4a3d c09e 0eba c0f4 673d
00000250: ed8d b03d 6045 4abd 95e6 4cbd 70f9 623d
00000260: b774 afbd 0f6d 33bd 1542 69bd bdee 06bd
00000270: 7260 67bd b87a b13d 8b4d 49bc 1688 a9bd
00000280: b76a b23d d203 873d 6abd 33bd d10f 793a
00000290: aba8 93bc 594e 7e3d 62d2 9c3d 35a9 a2bd
000002a0: 8264 9c3d dbb9 fdbb 7093 933d d992 a43d
000002b0: 553c a83d 1e3e 82bc 6d2f b33d ef1e 8a3d
000002c0: 2dc2 51bd 9f2b ae3d 2ff2 113d fde8 abbd
000002d0: a636 763d 1b82 313d 961d 813d 4556 543d
000002e0: 5fb5 873d b411 aa3d 6524 70bb 5d69 25bd
000002f0: f5a4 e73c 28cf abbd 5051 713d f28b 843d
00000300: f644 86bd 4546 61bd d330 a6bc 2f69 3f3d
00000310: d467 4b3c 67ce a43d e833 0fbc ba28 00bd
00000320: e778 e6bb 70f8 d23c b325 8ebd bbf9 13bd
00000330: 77ae 44bd 3bae 923d 29aa 653d 6cf8 96bc
00000340: e054 ceba 9d7e 253d feb5 723d 6aef 8abd
00000350: 4c43 89bd 51d5 acbd 4efa 443c 631b 7fbd
00000360: 5c73 ad3d 76c2 64bd c0bc 4d3d 6548 8ebd
00000370: b5fe f93c 2f5b e5bc 3e96 2c3d 37cb 84bd
00000380: 7800 9b3d 5e0a 2abd 6cbb 90bb 9a2c b0bd
00000390: 49af 3b3c 13dc 813d 8bd5 273d da2f 0fbd
000003a0: ebe1 03bd e76e 97bd 255d 4bbd 2341 f93b
000003b0: 2b52 e5bc 64ed ad3d 500d 5d3d f2bd 33bd
000003c0: 1c03 afbd 4a57 9f3d 5f72 9c3c 54ac b2bc
000003d0: 3578 6ebd 5c2c aebd ea68 b3bd 5e44 18bd
000003e0: 9cb3 45bd d729 9ebc d1ac 4bbc c277 7e3c
000003f0: ab34 463d 09b4 af3b 0372 61bd 2f89 64bd

fc.0.bias f4 [64]
0.070433736 0.059309024 0.024350513 0.18528378 -0.07734479 0.01924795 0.032463614 0.0878546
0.110456444 -0.037076607 -0.01391549 -0.02743764 0.18089311 -0.06407842 -0.058949795 0.0670034
0.017547375 -0.042363778 0.00129442 0.18634163 -0.08258508 0.033887994 -0.068169124 -0.011244061
-0.026536305 -0.023594037 -0.013248251 -0.028481765 0.030794602 0.11408196 0.12953116 0.049691223
-0.039535947 -0.008356656 -0.030178837 0.0558634 -0.058641143 0.037842244 0.10231823 -0.04263688
0.0513991 -0.08567187 0.14827219 -0.053300895 -0.06607711 0.0039951736 0.01463148 -0.05550487
0.03176994 0.15207943 0.06125564 0.007885763 -0.053253334 0.05525527 -0.059560735 0.18551593
-0.0546919 0.023989595 0.04806501 0.10232548 0.030815518 0.087602116 0.14500067 0.0020880287
00000000: 903f 903d 05ee 723d ba7a c73c 08bb 3d3e
00000010: f266 9ebd e0ad 9d3c 91f8 043d 1ded b33d
00000020: fd36 e23d a4dd 17bd ccfd 63bc e7c4 e0bc
00000030: 0b3c 393e 8c3b 83bd 5775 71bd 1439 893d
00000040: 83bf 8f3c a485 2dbd 87a9 a93a 57d0 3e3e
00000050: 5e22 a9bd 23ce 0a3d 419c 8bbd 0339 38bc
00000060: aa62 d9bc 4848 c1bc 310f 59bc 9752 e9bc
00000070: f644 fc3c cda3 e93d d1a3 043e 0689 4b3d
00000080: 72f0 21bd 5bea 08bc 9c39 f7bc 05d1 643d
00000090: b231 70bd 7800 1b3d 388c d13d 02a4 2ebd
000000a0: dd87 523d bc74 afbd aad4 173e 0a52 5abd
000000b0: 7053 87bd f2e9 823b e0b8 6f3c 1359 63bd
000000c0: 3221 023d b6ba 1b3e 32e7 7a3d 4a33 013c
000000d0: 2b20 5abd 5a53 623d f5f5 73bd e3f7 3d3e
000000e0: 9d04 60bd d485 c43c d1df 443d 0590 d13d
000000f0: d370 fc3c bd68 b33d 0e7b 143e 4fd7 083b

fc.2.weight f4 [1, 64]
0.015112346 0.07759647 0.030002289 -0.22894274 -0.049703687 -0.032328904 -0.16477117 -0.19302018
-0.13957882 0.07885733 0.023409493 0.12155691 -0.20850067 0.06305696 -0.082349524 0.04762646
0.045789823 0.03322494 0.009913099 -0.24383737 -0.04468648 0.024056088 0.106793225 0.08913423
0.099847704 -0.11553368 0.038706437 0.10220125 0.111023694 -0.16183291 -0.17517994 -0.21226983
-0.041476265 0.113146655 0.03233422 0.01155633 0.03419825 0.019081935 -0.20693406 0.06163712
0.023005992 0.088565804 -0.16475731 -0.018234804 0.03258033 -0.025779545 -0.2305158 -0.06638029
-0.21212156 -0.18165204 0.015168424 0.019989647 -0.104285374 0.09880459 0.0228988 -0.24058539
-0.07266016 -0.08522472 0.06383764 -0.22959009 0.0969797 -0.2506601 -0.23990537 0.10927786
00000000: c699 773c e6ea 9e3d 5cc7 f53c f76f 6abe
00000010: 1896 4bbd 506b 04bd c6b9 28be 15a7 45be
00000020: c0ed 0ebe f47f a13d 44c5 bf3c d4f2 f83d
00000030: 3381 55be 0224 813d dea6 a8bd f713 433d
00000040: 1c8e 3b3d e016 083d 8d6a 223c 81b0 79be
00000050: 2c09 37bd 4611 c53c 68b6 da3d 028c b63d
00000060: f47c cc3d ec9c ecbd a48a 1e3d e44e d13d
00000070: 6460 e33d 87b7 25be 5f62 33be 435d 59be
00000080: 04e3 29bd 6fb9 e73d e370 043d c356 3d3c
00000090: 7713 0c3d b851 9c3c 86e6 53be 3477 7c3d
000000a0: 1077 bc3c fd61 b53d 24b6 28be 2861 95bc
000000b0: f472 053d a02f d3bc 550c 6cbe 64f2 87bd
000000c0: 6536 59be fe02 3abe fb84 783c 54c1 a33c
000000d0: 9293 d5bd 105a ca3d 4496 bb3c 045c 76be
000000e0: dace 94bd 4c8a aebd 4fbd 823d aa19 6bbe
000000f0: 4b9d c63d 8556 80be c1a9 75be 12cd df3d
