models/final_model_rnn.pt (torch, 75829 bytes, 5 tensors)

rnn.weight_ih_l0 f4 [128, 11]
0.059411183 0.06535995 -0.02888305 0.073010534 -0.027527422 0.009632233 -0.051234722 0.043849476
0.06964527 -0.073070206 0.06864856 0.024574284 0.07289386 0.019435128 0.05080508 -0.0042689806
0.07633497 0.021237573 -0.03315834 0.030693203 -0.03252339 -0.0021891869 -0.04020214 0.056380183
-0.07180974 -0.04659423 -0.030962115 -0.059147187 0.0023388488 -0.09325402 0.07387209 -0.07937903
0.06285676 -0.016535422 -0.059903916 0.023322659 -0.017578546 0.04009716 -0.021652425 -0.059125777
-0.0075627794 -0.055095237 0.005929338 0.04760397 0.051093727 -0.038640957 0.05102347 0.015814994
0.044886697 -0.053873144 -0.08749637 -0.03414977 -0.06779588 0.072526075 0.025458613 0.03661165
0.027953802 -0.0015376013 0.06917345 -0.06280112 0.0055652596 -0.0603286 0.027254723 -0.03043938
0.027083628 -0.01841496 0.07330857 -0.05238794 -0.05271463 -0.052717816 0.07950026 0.029455515
0.085051745 -0.072944805 -0.08767029 -0.06915184 -0.059457876 0.065750316 0.061402403 0.103097774
-0.015799692 -0.030433498 0.07663878 -0.005909014 0.08341648 0.008907679 0.0807755 -0.03885716
-0.035115633 0.03636338 0.027750362 -0.012987786 0.06229033 0.06972677 -0.054453097 -0.0376653
0.09011465 -0.02005039 -0.021709796 -0.08552409 -0.050617374 0.022079732 -0.011666658 -0.06415986
0.0020732982 -0.060376443 -0.07498838 -0.04867216 -0.07735855 -0.056280226 0.088353775 0.016694345
0.027237726 -0.082438424 -0.05805115 -0.029420575 0.013821384 -0.07777479 -0.038084157 -0.052915324
0.00024494695 -0.032889586 -0.006124938 -0.05989457 -0.060669333 -0.05156592 -0.030255103 -0.069763236
0.07411096 -0.017541908 0.076049045 0.027540226 -0.07484698 0.061167847 -0.024319595 -0.033881556
-0.07336856 -0.087872215 0.025288846 -0.019307893 0.034411628 -0.07253709 0.065622084 -0.059070203
-0.010693549 0.022937749 0.051954817 0.07779825 0.08696697 -0.06363247 0.02874923 -0.03163263
-0.0037703153 -0.05987808 0.045157026 -0.099720605 0.012854899 -0.0045939335 -0.0070086676 -0.08350632
0.04458937 -0.016355991 -0.024276689 -0.11318045 0.001444648 -0.013260073 -0.040492848 0.075920865
0.019706074 -0.048903186 -0.044736784 -0.004221049 0.04935263 -0.022586212 -0.05043217 -0.03026796
-0.06586834 0.031598788 0.06848379 -0.08009847 0.02603043 0.051042844 0.021477697 -0.02694009
0.049615175 0.046958365 0.034314144 -0.015531724 -0.023405345 0.009455866 -0.015614164 -0.02633982
0.056498438 0.075960904 -0.008750212 -0.019789873 0.0012897884 -0.0052775126 0.021249555 0.024769386
-0.08027931 -0.032618634 0.07443443 0.03443212 -0.0043962216 -0.05328984 -0.05407644 -0.07917535
-0.02881128 0.013743412 0.040238965 0.024880491 -0.09417722 -0.06914707 -0.02995948 0.06920383
-0.0031313489 -0.038606517 0.020721775 -0.049705394 -0.045971014 0.074984826 -0.029755166 -0.0067320904
-0.07677892 0.07024819 0.07802844 0.043039937 -0.050446115 -0.07526016 -0.060675938 0.093290575
0.069961846 0.101811275 0.073657416 0.04974049 0.026502153 -0.039752457 -0.04822682 -0.054915797
0.063515514 -0.016007893 0.011562174 -0.021785669 0.01302612 -0.032789003 -0.028397378 0.058630124
0.0031016187 0.08389783 0.000970746 -0.035322156 0.013770759 -0.032949723 -0.01766862 -0.07473339
00000000: 2459 733d 70db 853d 259c ecbc 8c86 953d
00000010: 3081 e1bc 83d0 1d3c 80db 51bd 829b 333d
00000020: 2ea2 8e3d d5a5 95bd 9e97 8c3d 0250 c93c
00000030: 6049 953d 6b36 9f3c fd18 503d cee2 8bbb
00000040: 8255 9c3d 6bfa ad3c 0ad1 07bd 5070 fb3c
00000050: 3f37 05bd 7678 0fbb 00ab 24bd e8ee 663d
00000060: fc10 93bd 97d9 3ebd 43a4 fdbc 5244 72bd
00000070: 5f47 193b f7fb bebd 404a 973d 7991 a2bd
00000080: 0cbb 803d 4b75 87bc cf5d 75bd 290f bf3c
00000090: e200 90bc eb3c 243d 6d60 b1bc df2d 72bd
000000a0: 31d1 f7bb 8bab 61bd e44a c23b 61fc 423d
000000b0: a847 513d fb45 1ebd fcfd 503d 728e 813c
000000c0: 1ddb 373d 16aa 5cbd 4c31 b3bd a1e0 0bbd
000000d0: 91d8 8abd 8d88 943d 958e d03c 19f6 153d
000000e0: 5fff e43c 5789 c9ba cfaa 8d3d e09d 80bd
000000f0: c85c b63b 1f1b 77bd 4c45 df3c 025c f9bc
00000100: 7cde dd3c f8da 96bc ce22 963d bd94 56bd
00000110: 4ceb 57bd a3ee 57bd 08d1 a23d b14c f13c
00000120: 9c2f ae3d 1664 95bd 7b8c b3bd 7b9f 8dbd
00000130: 1a8a 73bd 1aa8 863d 1681 7b3d ed24 d33d
00000140: 5b6e 81bc ac4f f9bc cbf4 9c3d 67a0 c1bb
00000150: 42d6 aa3d 83f1 113c a06d a53d af28 1fbd
00000160: 69d5 0fbd c4f1 143d ba54 e33c b9ca 54bc
00000170: 2524 7f3d e9cc 8e3d 360a 5fbd ee46 1abd
00000180: 088e b83d b740 a4bc bed8 b1bc 4127 afbd
00000190: 2a54 4fbd 8ee0 b43c 8325 3fbc 3f66 83bd
000001a0: 2ce0 073b 4a4d 77bd 8293 99bd 755c 47bd
000001b0: 296e 9ebd 1886 66bd d3f2 b43d 94c2 883c
000001c0: a721 df3c 7ad5 a8bd 0bc7 6dbd 6b03 f1bc
000001d0: 1673 623c 6448 9fbd 22fe 1bbd bdbd 58bd
000001e0: 396c 8039 3bb7 06bd b4b3 c8bb 0254 75bd
000001f0: 6880 78bd c936 53bd 8dd9 f7bc 07e0 8ebd
00000200: 7dc7 973d 0cb4 8fbc 9abf 9b3d 0a9c e13c
00000210: 6049 99bd 238b 7a3d e339 c7bc 63c7 0abd
00000220: 4142 96bd 59f6 b3bd 8e2a cf3c 962b 9ebc
00000230: 35f3 0c3d 538e 94bd df64 863d 99f3 71bd
00000240: ff33 2fbc f2e7 bb3c 93ce 543d b054 9f3d
00000250: bd1b b23d be51 82bd 8183 eb3c 3791 01bd
00000260: 6517 77bb b842 75bd 93f6 383d 513a ccbd
00000270: 5b9d 523c b588 96bb f7a8 e5bb 5d05 abbd
00000280: 58a3 363d 00fd 85bc e8df c6bc 27cb e7bd
00000290: 585a bd3a c740 59bc d4db 25bd 667c 9b3d
000002a0: a26e a13c b54e 48bd eb3d 37bd ba50 8abb
000002b0: fc25 4a3d b806 b9bc f791 4ebd 83f4 f7bc
000002c0: fbe5 86bd bb6d 013d 3b41 8c3d ab0a a4bd
000002d0: c53d d53c 4d12 513d fff1 af3c 77b1 dcbc
000002e0: 4839 4b3d 6a57 403d fd8c 0c3d c678 7ebc
000002f0: 91bc bfbc c7ec 1a3c 8dd2 7fbc 9bc6 d7bc
00000300: e86a 673d 6491 9b3d 0d5d 0fbc 5f1e a2bc
00000310: 1e0e a93a fcee acbb 8c13 ae3c 2be9 ca3c
00000320: 7b69 a4bd 1e9b 05bd 1471 983d b208 0d3d
00000330: 2e0e 90bb 7346 5abd 427f 5dbd b026 a2bd
00000340: a205 ecbc 0c2c 613c 9dd1 243d 2cd2 cb3c
00000350: fcdf c0bd fb9c 8dbd 956d f5bc bdba 8d3d
00000360: 5137 4dbb de21 1ebd b6c0 a93c e297 4bbd
00000370: 1a4c 3cbd a591 993d 1bc1 f3bc de98 dcbb
00000380: 443e 9dbd 48de 8f3d 60cd 9f3d a54a 303d
00000390: 96a0 4ebd 0022 9abd 5587 78bd 210f bf3d
000003a0: 2848 8f3d 6e82 d03d b3d9 963d afbc 4b3d
000003b0: 0b1b d93c 79d3 22bd 7c89 45bd 63ef 60bd
000003c0: 6c14 823d fc22 83bc 466f 3d3c dc77 b2bc
000003d0: 826b 553c c34d 06bd 9ea1 e8bc 2426 703d
000003e0: 8744 4b3b a0d2 ab3d a979 7e3a f7ad 10bd
000003f0: c09e 613c 4af6 06bd c8bd 90bc d20d 99bd

rnn.weight_hh_l0 f4 [128, 128]
-0.040622253 -0.0039170496 -0.0042420286 0.019597081 0.012156486 -0.035974253 -0.038594894 0.004630575
-0.063317314 0.015083692 0.0019234748 0.042456996 0.029082678 0.057984173 -0.00861769 -0.057146396
0.031346176 -0.06790049 -0.020313373 -0.013417777 -0.041807882 -0.027069528 0.086883806 0.042201824
0.032659963 0.091157116 -0.07193517 0.022427194 0.048419748 0.06687978 -0.0869602 0.036070805
-0.058980994 0.004710532 -0.024129815 -0.068128906 -0.08878815 -0.0638467 0.03468818 0.03519106
-0.057804994 -0.038932975 0.009614586 -0.06825474 0.0416386 0.088220485 0.021183874 -0.073838145
0.012446747 0.023921985 0.07394082 -0.03886457 -0.07102243 0.034130704 -0.0026719456 -0.036963467
-0.028872514 -0.051061317 0.066207305 -0.023414634 0.055582095 0.083112754 0.019360876 0.010664062
0.0021445353 0.05244307 -0.071481496 0.02698636 -0.02256565 0.048523765 0.007770519 -0.024562676
-0.0013773195 0.04206812 -0.06955265 -0.04720599 -0.0116344625 -0.023896437 0.040292636 0.0676479
-0.01763045 0.09174233 -0.028766239 -0.06362036 -0.044546157 -0.052732926 -0.07902268 -0.07059109
-0.08401693 0.0068291025 0.049469024 0.09114745 0.09183095 0.0030735868 0.025315583 -0.04363633
0.025999768 -0.09291467 0.049854595 0.0080475835 0.02361431 0.024199057 -0.04874372 0.084015146
0.057424918 0.049897622 0.008787422 0.06367097 0.067649744 0.0557832 0.05916725 -0.024172258
0.048772275 0.02852882 0.035679195 0.09425384 0.028178584 -0.04097104 -0.02482445 0.04095243
0.02306728 -0.032309268 0.07741819 0.044940144 -0.06306701 -0.011285926 -0.013812329 -0.04723149
0.0047204457 -0.018960845 -0.053805258 -0.020247268 -0.039688498 0.07638212 0.042077053 0.078810446
0.032409575 0.011840139 0.028162127 0.006996568 -0.077538356 -0.044095002 -0.013240856 -0.006844984
0.04147093 0.04220754 0.07829336 0.0242005 -0.021873701 -0.07464406 -0.07291027 -0.044277646
0.018484427 0.03958 0.069158375 -0.03613203 0.0012016031 -0.03442186 -0.00689038 0.020201124
0.007107623 -0.004081826 0.01937142 0.024743693 -0.01865938 -0.044532005 0.029024996 -0.0022922943
-0.032798287 0.045293596 -0.0073989737 -0.02103113 -0.034613606 -0.019802645 -0.08333183 0.028281242
0.009500162 0.06181103 -0.0024468817 -0.0011069037 0.015903927 0.075422354 -0.03357929 0.060942058
0.013442646 -0.050792307 0.038945444 -0.04483569 -0.019649208 -0.03404441 -0.068305545 0.07778584
-0.08717705 0.052463163 -0.08772427 -0.002583644 0.013445784 0.054662447 -0.04016093 0.017266637
0.0055181296 0.06018011 0.0134285735 0.024558712 -0.061568346 -0.06959573 0.08681609 -0.07258084
-0.006873457 -0.018858675 0.078259505 -0.022703813 -0.059120994 -0.030580098 0.040363118 0.026853684
0.08129668 -0.023509372 0.04980531 -0.091350675 0.04068663 0.032437477 0.048844416 -0.05949018
-0.015424028 0.02955752 -0.07098376 -0.0621375 -0.07689043 0.013107835 0.06306179 0.014523009
-0.0012030125 0.03897055 -0.06365409 0.0011446751 -0.030131495 -0.03759038 0.084397435 -0.06020812
0.019799583 -0.08584175 -0.009955033 -0.04745018 0.020919051 -0.041459654 0.048664022 -0.075391084
0.04491543 -0.05822174 0.039165746 -0.029043602 0.00796784 -0.007994526 0.06553939 0.020793548
00000000: 8563 26bd 985a 80bb b700 8bbb 0f8a a03c
00000010: ff2b 473c bd59 13bd ae15 1ebd 14bc 973b
00000020: 82ac 81bd 9721 773c 1b1d fc3a 63e7 2d3d
00000030: cc3e ee3c d080 6d3d 3631 0dbc 5712 6abd
00000040: d964 003d 690f 8bbd 3b68 a6bc 3cd6 5bbc
00000050: be3e 2bbd eac0 ddbc 23f0 b13d d2db 2c3d
00000060: 74c6 053d 95b0 ba3d bf52 93bd 3cb9 b73c
00000070: c953 463d 44f8 883d 3018 b2bd fbbe 133d
00000080: 0e96 71bd ce5a 9a3b e4ab c5bc 2b87 8bbd
00000090: 90d6 b5bd 0fc2 82bd 3115 0e3d 8024 103d
000000a0: eec4 6cbd 2f78 1fbd 7f86 1d3c 24c9 8bbd
000000b0: 3d8d 2a3d f1ac b43d ce89 ad3c 7438 97bd
000000c0: 71ed 4b3c 0af8 c33c 496e 973d 7530 1fbd
000000d0: 3574 91bd a3cc 0b3d cf1b 2fbb 0167 17bd
000000e0: 0d86 ecbc ac25 51bd b297 873d 0cd0 bfbc
000000f0: 0daa 633d 0537 aa3d b39a 9e3c 51b8 2e3c
00000100: 558b 0c3b 8bce 563d e464 92bd 8012 dd3c
00000110: 99db b8bc dbc0 463d d69f fe3b aa37 c9bc
00000120: 2c87 b4ba 9f4f 2c3d 9f71 8ebd 115b 41bd
00000130: 799e 3ebc 76c2 c3bc e409 253d fb8a 8a3d
00000140: bc6d 90bc 67e3 bb3d 2da7 ebbc 644b 82bd
00000150: 0876 36bd 7bfe 57bd a5d6 a1bd 1092 90bd
00000160: 1111 acbd aac6 df3b 08a0 4a3d 84ab ba3d
00000170: dd11 bc3d 3b6e 493b a062 cf3c 02bc 32bd
00000180: 77fd d43c 0c4a bebd 5534 4c3d 03da 033c
00000190: cc72 c13c 1a3d c63c 7fa7 47bd 2210 ac3d
000001a0: 6436 6b3d 7361 4c3d 1ff9 0f3c ed65 823d
000001b0: f38b 8a3d ed7c 643d 5c59 723d e604 c6bc
000001c0: 70c5 473d 46b5 e93c 5924 123d 2808 c13d
000001d0: c6d6 e63c 40d1 27bd a55c cbbc bcbd 273d
000001e0: 98f7 bc3c b956 04bd 6e8d 9e3d 2813 383d
000001f0: 4729 81bd 9be8 38bc 1b4d 62bc cf75 41bd
00000200: f8ad 9a3b c653 9bbc e762 5cbd 99dd a5bc
00000210: 6890 22bd 3b6e 9c3d fd58 2c3d 5f67 a13d
00000220: e7bf 043d 24fd 413c 43b4 e63c 7743 e53b
00000230: 6ecc 9ebd f69c 34bd 2df0 58bc e34b e0bb
00000240: 6cdd 293d d0e1 2c3d 4558 a03d 2140 c63c
00000250: 7a30 b3bc fcde 98bd fb51 95bd 7a5c 35bd
00000260: a76c 973c a31e 223d e8a2 8d3d 2eff 13bd
00000270: 1c7f 9d3a f0fd 0cbd b2c8 e1bb d47c a53c
00000280: 10e7 e83b d7c0 85bb d0b0 9e3c 49b3 ca3c
00000290: 8edb 98bc 3167 36bd d4c5 ed3c 513a 16bb
000002a0: 7f57 06bd c785 393d 1773 f2bb 7a49 acbc
000002b0: ffc6 0dbd 2839 a2bc e1a9 aabd 10ae e73c
000002c0: 91a6 1b3c 902d 7d3d dd5b 20bb 8615 91ba
000002d0: f448 823c 0977 9a3d 708a 09bd 619e 793d
000002e0: 8b3e 5c3c 980b 50bd 4285 1f3d a1a5 37bd
000002f0: 60f7 a0bc 2772 0bbd c7e3 8bbd 2f4e 9f3d
00000300: e289 b2bd 9de3 563d c8a8 b3bd 5a52 29bb
00000310: b54b 5c3c bbe5 5f3d ca7f 24bd c372 8d3c
00000320: 6dd1 b43b 6b7f 763d 8503 5c3c 5a2f c93c
00000330: 172f 7cbd 3588 8ebd a2cc b13d 43a5 94bd
00000340: bd3a e1bb 827d 9abc 8546 a03d 59fd b9bc
00000350: db28 72bd 1d83 fabc cc53 253d 42fc db3c
00000360: e07e a63d ba96 c0bc a700 4c3d 1016 bbbd
00000370: 06a7 263d 29dd 043d 1511 483d faab 73bd
00000380: 10b5 7cbc 9d22 f23c ef5f 91bd e483 7ebd
00000390: bb78 9dbd 3fc2 563c 8a26 813d eaf1 6d3c
000003a0: 67ae 9dba 959f 1f3d 135d 82bd ec08 963a
000003b0: 53d6 f6bc 5ff8 19bd 90d8 ac3d ca9c 76bd
000003c0: bc32 a23c cdcd afbd 6f1a 23bc 1f5b 42bd
000003d0: 6e5e ab3c 99d1 29bd ed53 473d a466 9abd
000003e0: 3ef9 373d eb79 6ebd 436c 203d d9ec edbc
000003f0: 8b8b 023c 79fb 02bc 8439 863d 3b57 aa3c

rnn.bias_ih_l0 f4 [128]
-0.016552785 -0.03039418 -0.072937 -0.082252435 -0.04879503 0.0830585 -9.383995e-05 -0.020606587
0.0028054116 -0.0034647975 0.02148895 0.028782556 0.055434167 -0.03774313 -0.05476177 -0.075857066
-0.03051888 -0.077711545 -0.007662023 -0.06946971 -0.019147974 0.110093445 0.109388486 0.021348497
0.03648879 0.05710903 0.0038872142 0.017603738 0.0048171347 -0.07050133 0.0861638 -0.04101265
-0.015148585 -0.07357284 -0.08590374 0.11883622 -0.029168421 -0.0050792596 -0.004660394 0.04437314
0.0033418117 -0.030986821 -0.051535655 0.012692239 0.019197214 -0.060874756 -0.03889632 -0.038217634
0.076042175 0.03511566 0.06937697 0.058909092 -0.009143074 -0.080527775 0.0940589 0.014560471
-0.031795193 0.00917052 -0.08704455 0.0031154212 0.08207734 0.009651925 -0.082846485 0.07706964
0.012609876 -0.012682056 0.064766295 0.0392577 0.06280132 0.043235373 -0.049504306 -0.074914016
0.063477546 -0.0342128 0.07382525 0.032692272 -0.08520678 0.04827493 0.023451459 -0.09537729
0.005222574 -0.08001808 0.043284435 0.059639793 0.0019839294 0.055326 -0.03522536 -0.0030833476
-0.05726421 0.08099676 0.04198067 -0.03118403 -0.089975566 -0.0030813033 0.06762018 -0.03103932
0.04380085 -0.064250216 -0.058766298 -0.075859755 -0.09657 -0.03592255 -0.03769515 0.023584325
0.059288077 0.0108596515 0.05376432 -0.056483857 -0.04771341 -0.09646765 0.08276524 0.004832328
-0.013179618 -0.090485446 0.033076826 -0.089904465 0.059410576 -0.08291267 0.036102414 0.040505413
-0.07141454 0.064916484 0.084856145 0.07034212 0.080260254 -0.0647529 -0.039791666 0.079308785
00000000: b599 87bc 37fd f8bc fe5f 95bd f773 a8bd
00000010: 4cdd 47bd 931a aa3d f1cb c4b8 25cf a8bc
00000020: ffda 373b a811 63bb 9809 b03c 65c9 eb3c
00000030: f00e 633d 8a98 1abd e14d 60bd f35a 9bbd
00000040: bb02 fabc 3b27 9fbd b511 fbbb 2346 8ebd
00000050: 36dc 9cbc ac78 e13d 1207 e03d 0be3 ae3c
00000060: 4575 153d 29eb 693d a2c0 7e3b b735 903c
00000070: 0ed9 9d3b 0063 90bd a576 b03d e1fc 27bd
00000080: c531 78bc 5bad 96bd 4dee afbd 6760 f33d
00000090: 9df2 eebc eb6f a6bb 38b6 98bb 9cc0 353d
000000a0: 4c02 5b3b 13d8 fdbc 0d17 53bd 1cf3 4f3c
000000b0: 7a43 9d3c cf57 79bd bf51 1fbd 188a 1cbd
000000c0: 00bc 9b3d 70d5 0f3d 8315 8e3d a94a 713d
000000d0: d5cc 15bc bfeb a4bd f4a1 c03d 0b8f 6e3c
000000e0: ad3b 02bd f33f 163c 6a44 b2bd 182c 4c3b
000000f0: 2a18 a83d 1c23 1e3c 6bab a9bd b0d6 9d3d
00000100: a799 4e3c 66c8 4fbc 31a4 843d afcc 203d
00000110: fa9d 803d 9317 313d 07c5 4abd 856c 99bd
00000120: 8400 823d b922 0cbd b131 973d 55e8 053d
00000130: e480 aebd efbb 453d 461d c03c 2b55 c3bd
00000140: 2022 ab3b 85e0 a3bd 054b 313d db48 743d
00000150: d004 023b 849d 623d 7848 10bd fd11 4abb
00000160: e08d 6abd a1e1 a53d ecf3 2b3d a775 ffbc
00000170: 1c45 b8bd b1ef 49bb 737c 8a3d 2c46 febc
00000180: 8568 333d 9e95 83bd eeb4 70bd 5c5c 9bbd
00000190: 7ec6 c5bd 8623 13bd 3b66 1abd ea33 c13c
000001a0: 0ed8 723d aeec 313c fa37 5c3d 9e5b 67bd
000001b0: 236f 43bd d590 c5bd d280 a93d 8158 9e3b
000001c0: 53ef 57bc 6f50 b9bd 917b 073d d51f b8bd
000001d0: 8158 733d 1ece a9bd 20e0 133d 01e9 253d
000001e0: c941 92bd eff2 843d 0fc9 ad3d 880f 903d
000001f0: 7d5f a43d 2b9d 84bd 96fc 22bd a56c a23d

rnn.bias_hh_l0 f4 [128]
0.033693243 -0.05181886 0.081676714 -0.046250716 -0.028752157 0.012187962 0.085046194 -0.014722436
0.017387161 -0.010394846 -0.026476355 0.04076426 0.0053188056 -0.066235706 -0.037841976 0.05584136
-0.040647097 0.078528225 -0.072820544 0.013893473 0.06592143 0.058381986 0.06427807 0.022844208
-0.027107535 0.06334356 -0.019594945 0.07427383 0.09531228 -0.07652755 0.08763254 0.046469893
-0.04900278 -0.049133163 -0.04573145 0.11345707 0.03295303 -0.05625823 -0.078813955 -0.08188297
-0.059818946 -0.03611579 -0.08770499 -0.08241154 -0.05550488 0.024358276 0.056406695 0.026065275
0.073496 0.021395879 -0.014428166 0.0350874 -0.04950385 0.0571086 -0.024557604 -0.055203952
-0.016952632 -0.075695634 -0.033859592 -0.014771943 0.010356661 -0.031183865 -0.061579727 -0.08280407
-0.07014926 -0.07130721 -0.09290174 0.0857762 0.06291877 0.0400759 0.056913197 0.015813833
-0.029198451 -0.03972924 -0.03428425 0.02864489 0.022748634 -0.07427458 -0.0068909577 -0.07832654
0.06646293 0.00020503838 -0.0013640616 -0.039668266 -0.0113039175 0.011246634 0.036510173 -0.06190312
-0.07064245 -0.048150904 -0.076366894 -0.048440058 -0.08626379 0.08683995 -0.08511193 -0.03511117
0.015017103 -0.03559415 -0.024517095 0.041368987 -0.04085237 -0.010440358 0.077994734 -0.042279318
-0.017468786 0.05623083 -0.002590961 -0.07050595 0.058637563 -0.09006757 -0.08711625 -0.049988497
0.022764934 0.061892353 -0.052489083 -0.04716489 0.07984414 0.06900453 0.05065575 -0.08917022
0.048575275 -0.005617142 -0.067936145 0.07781956 -0.060453184 -0.008991386 -0.07244384 0.07493324
00000000: ed01 0a3d 0340 54bd 1f46 a73d 6471 3dbd
00000010: a589 ebbc 05b0 473c b32c ae3d 5f36 71bc
00000020: 856f 8e3c 254f 2abc f1e4 d8bc 6df8 263d
00000030: 6049 ae3b 96a6 87bd 3000 1bbd e9b9 643d
00000040: 927d 26bd 68d3 a03d f022 95bd 73a1 633c
00000050: d101 873d f321 6f3d 39a4 833d c723 bb3c
00000060: 9f10 debc 45ba 813d 9485 a0bc e11c 983d
00000070: 1633 c33d 7aba 9cbd b078 b33d 3757 3e3d
00000080: 24b7 48bd db3f 49bd e750 3bbd 2e5c e83d
00000090: c2f9 063d 086f 66bd 3669 a1bd 42b2 a7bd
000000a0: b604 75bd 27ee 13bd ac9e b3bd 62c7 a8bd
000000b0: 1659 63bd 028b c73c b50a 673d d886 d53c
000000c0: 1285 963d 6946 af3c 1d64 6cbc ceb7 0f3d
000000d0: 8dc4 4abd b5ea 693d 072d c9bc 8a1d 62bd
000000e0: 3fe0 8abc 5006 9bbd 5bb0 0abd 0506 72bc
000000f0: fcae 293c 4e75 ffbc 063b 7cbd 2e95 a9bd
00000100: 6aaa 8fbd 8409 92bd 4443 bebd 6fab af3d
00000110: 8edb 803d a026 243d d01d 693d 038c 813c
00000120: 9731 efbc 21bb 22bd a46d 0cbd b0a8 ea3c
00000130: 585b ba3c 451d 98bd 8bcd e1bb aa69 a0bd
00000140: b71d 883d 92ff 5639 50ca b2ba 317b 22bd
00000150: 1134 39bc cd43 383c b18b 153d 208e 7dbd
00000160: fdac 90bd e239 45bd 3f66 9cbd 1569 46bd
00000170: 12ab b0bd 25d9 b13d 2a4f aebd bbd0 0fbd
00000180: 4c0a 763c 2ccb 11bd 13d8 c8bc 8772 293d
00000190: d154 27bd 090e 2bbc b4bb 9f3d 142d 2dbd
000001a0: b31a 8fbc 4c52 663d 1dcd 29bb 6c65 90bd
000001b0: f12d 703d 5975 b8bd 016a b2bd bdc0 4cbd
000001c0: 877d ba3c d682 7d3d cbfe 56bd f92f 41bd
000001d0: 5385 a33d 3f52 8d3d 677c 4f3d e09e b6bd
000001e0: def6 463d 0110 b8bb 1b22 8bbd dd5f 9f3d
000001f0: c29d 77bd 9b50 13bc 705d 94bd 9976 993d

fc.weight f4 [1, 128]
0.354683 -0.37327176 0.40159205 0.38106236 0.34499124 0.4118388 -0.3836196 -0.35213697
-0.3996795 0.26702467 0.43006247 0.3737617 0.2894785 -0.42851233 0.3458459 0.35608518
-0.41228673 -0.36069328 -0.38400698 0.36058766 -0.38894856 -0.34871724 -0.35450023 -0.3896311
0.35329157 0.39488295 0.3707016 0.4082448 -0.3794852 0.32138577 -0.39825937 -0.40069148
-0.40951866 0.33347568 0.37971154 -0.3865195 0.39321247 0.34076276 0.36101413 0.36693296
0.39898106 0.34829614 0.38475037 0.33348644 -0.31824157 0.34528542 -0.36008576 -0.3194992
-0.26350236 -0.28557062 -0.36801624 0.34404245 0.38572562 0.37529993 -0.4289351 -0.33984414
0.34143654 0.39980108 0.3491674 -0.39154458 -0.38003796 0.40981013 0.32571983 -0.33544323
0.4291901 -0.43054208 0.34463266 -0.4315715 -0.37872425 0.38429615 0.3519224 0.39569783
0.2917186 0.34599292 -0.39031574 0.41203958 0.32892013 0.42420572 0.34770417 0.38211748
-0.4187899 0.3648161 0.41709042 -0.4194931 0.3867072 0.38481885 -0.39037314 0.29421982
0.3520188 -0.37453398 0.3697513 0.36266723 0.42938015 0.29102176 0.33950275 0.3944094
-0.39530483 -0.37615582 0.33251464 -0.2651746 0.36913526 -0.43384534 -0.327187 0.4265876
0.40196487 -0.27158472 -0.3514668 0.36065248 0.4382464 0.43536204 -0.37783954 -0.33908108
-0.35537225 0.42987502 -0.38419363 0.34098318 0.38422403 -0.3656057 -0.3805392 0.42798048
0.31908134 -0.2975691 0.33197024 -0.43904904 -0.412975 0.3572993 0.38290036 0.339448
00000000: 0399 b53e 7a1d bfbe 799d cd3e 9b1a c33e
00000010: b1a2 b03e 89dc d23e ca69 c4be 4c4b b4be
00000020: cba2 ccbe 75b7 883e 2631 dc3e b25d bf3e
00000030: 8736 943e f865 dbbe b712 b13e cc50 b63e
00000040: 3f17 d3be caac b8be 909c c4be f29e b83e
00000050: 4424 c7be 118b b2be 0e81 b5be ba7d c7be
00000060: a2e2 b43e 192e ca3e 9acc bd3e 7605 d13e
00000070: e24b c2be ad8c a43e a7e8 cbbe 6f27 cdbe
00000080: 6eac d1be 53bd aa3e 8d69 c23e e2e5 c5be
00000090: 2553 c93e 7578 ae3e d8d6 b83e a3de bb3e
000000a0: 3f47 cc3e df53 b23e 00fe c43e bcbe aa3e
000000b0: 8ff0 a2be 40c9 b03e 295d b8be 6695 a3be
000000c0: c8e9 86be 5036 92be a06c bcbe 5526 b03e
000000d0: d47d c53e 5027 c03e 629d dbbe 0d00 aebe
000000e0: c5d0 ae3e bab2 cc3e 12c6 b23e 8878 c8be
000000f0: 5694 c2be a2d2 d13e c0c4 a63e 37bf abbe
00000100: cebe db3e 0370 dcbe b173 b03e f1f6 dcbe
00000110: 25e8 c1be 77c2 c43e 2c2f b43e e898 ca3e
00000120: 245c 953e fc25 b13e 77d7 c7be daf6 d23e
00000130: 3868 a83e 7e31 d93e 4806 b23e e7a4 c33e
00000140: a16b d6be 2dc9 ba3e e08c d53e cdc7 d6be
00000150: 7cfe c53e fa06 c53e fdde c7be fba3 963e
00000160: cf3b b43e ebc2 bfbe 0b50 bd3e 85af b93e
00000170: b7d7 db3e ce00 953e 4ed3 ad3e 07f0 c93e
00000180: 6565 cabe 7f97 c0be 5c3f aa3e f7c4 87be
00000190: 4cff bc3e fa20 debe 0e85 a7be b169 da3e
000001a0: 57ce cd3e 270d 8bbe 75f3 b3be 71a7 b83e
000001b0: d561 e03e c6e7 de3e 2f74 c1be 099c adbe
000001c0: 5af3 b5be 9418 dc3e 07b5 c4be 5995 ae3e
000001d0: 03b9 c43e ac30 bbbe 09d6 c2be 4220 db3e
000001e0: a15e a33e fa5a 98be 01f8 a93e 09cb e0be
000001f0: 7671 d3be efef b63e 840b c43e 21cc ad3e
