models/final_model_rnn.pt (torch, 76405 bytes, 5 tensors)

rnn.weight_ih_l0 f4 [128, 12]
000000 0c 11 6b 3d 97 88 81 3d 36 56 ff bc c1 00 91 3d
       0.057389304 0.063248806 -0.031169038 0.07080222
000010 6c 1a f3 bc 11 f4 f6 3b 2f 6a 5a bd a7 98 29 3d
       -0.029675685 0.007536419 -0.05332392 0.041405346
000020 55 61 8a 3d f3 71 99 bd 17 35 88 3d 4d 3c cc 3b
       0.06756846 -0.07492437 0.06650751 0.0062327744
000030 3f 39 2d 3d 88 f6 2e bc 9a b1 a4 3c 88 38 0f bd
       0.042290922 -0.010678895 0.020104218 -0.03496602
000040 90 70 3a 3d 09 a9 1a bc 22 4e 82 bd 20 84 2f b9
       0.045517504 -0.009439715 -0.06362559 -0.00016738521
000050 23 66 81 bd 46 b1 07 bd cb 7f 6f bd 5a 75 15 3d
       -0.06318309 -0.033128045 -0.058471482 0.03648887
000060 f8 74 b4 bd 40 16 72 bd af c6 31 bd f9 59 92 bd
       -0.088113725 -0.05910325 -0.04340237 -0.07146067
000070 0b 5b 24 bc e3 45 d8 bd b1 4c 7b 3d 28 27 bf bd
       -0.010031472 -0.10560205 0.061352435 -0.0933364
000080 17 fe 4b 3d 1c 65 69 bb 10 c9 40 bd 63 70 14 3d
       0.049802866 -0.0035613244 -0.04706675 0.036239993
000090 00 20 5f bc 3c d3 33 3d 74 c8 92 bc 8d d1 62 bd
       -0.013618469 0.04390262 -0.01791785 -0.055375624
0000a0 50 40 75 bb d5 b4 52 bd fa cf 1e 3c 3a b8 52 3d
       -0.0037422366 -0.051441986 0.00969314 0.051445223
0000b0 79 ec c0 3c e5 13 87 bd 68 bf c0 3c cc 92 3e bc
       0.023550259 -0.065955915 0.02352877 -0.011631679
0000c0 7f 8b dc 3c 84 e3 92 bd 1f 50 d8 bd dc 27 55 bd
       0.026921986 -0.071723014 -0.10562157 -0.052039966
0000d0 ea 7e af bd f3 76 5f 3d ad 4a f5 3b 39 b8 98 3c
       -0.08569129 0.0545568 0.0074857087 0.018642532
0000e0 d2 f8 24 3c 58 d1 9c bc 77 ee 51 3d cd 32 a5 bd
       0.010069089 -0.019142792 0.05125281 -0.0806633
0000f0 21 10 e4 bc d3 9a be bd fa 12 b4 bb 2f f9 82 bd
       -0.027839722 -0.09306874 -0.0054954262 -0.06395184
000100 95 4f d7 bb 91 35 55 bd 62 42 22 3d d8 0c b0 bd
       -0.006570766 -0.052053038 0.03961409 -0.085962
000110 92 3e b0 bd 00 2d b0 bd 7c 21 3c 3d 9d 99 7f bb
       -0.08605684 -0.08602333 0.04593037 -0.0039001473
000120 5c ce c7 3d 4b 73 77 bd c5 18 9a bd 4d 94 67 bd
       0.09756157 -0.060412686 -0.07524256 -0.056537915
000130 b8 ef 3f bd eb ea 45 3d ee cc 34 3d a1 c8 af 3d
       -0.046859473 0.04831974 0.04414075 0.08583189
000140 51 d6 06 bd e7 88 42 bd 10 92 73 3d 35 9c bd bc
       -0.03291923 -0.04749384 0.059465468 -0.023145774
000150 b7 4d 84 3d e3 f5 23 bc b0 9a 7c 3d c4 b1 6b bd
       0.064601354 -0.010007354 0.06167096 -0.057542577
000160 a2 03 09 bd 15 c1 1b 3d 6a c0 f3 3c 2a 01 39 bc
       -0.03345073 0.038025934 0.029754836 -0.011291781
000170 52 2f 82 3d 5c 43 92 3d 5d f3 58 bd 63 5f 14 bd
       0.06356682 0.07141754 -0.052966464 -0.03622378
000180 b3 f5 95 3d a5 0e 18 bd 33 ef 1f bd 66 6a bf bd
       0.07322254 -0.03712334 -0.039046478 -0.09346466
000190 1d d5 6f bd f0 68 67 3c 4d 8b a0 bc 97 91 93 bd
       -0.05855285 0.01412414 -0.019597674 -0.072055034
0001a0 da 33 bf bb 63 cd 8b bd 17 ca a9 bd 89 95 67 bd
       -0.0058350386 -0.06826284 -0.08290499 -0.056539092
0001b0 29 6e 9e bd 18 86 66 bd d3 f2 b4 3d 94 c2 88 3c
       -0.07735855 -0.056280226 0.088353775 0.016694345
0001c0 a7 21 df 3c 7a d5 a8 bd 0b c7 6d bd 6b 03 f1 bc
       0.027237726 -0.082438424 -0.05805115 -0.029420575
0001d0 16 73 62 3c 64 48 9f bd 22 fe 1b bd bd bd 58 bd
       0.013821384 -0.07777479 -0.038084157 -0.052915324
0001e0 39 6c 80 39 3b b7 06 bd b4 b3 c8 bb 02 54 75 bd
       0.00024494695 -0.032889586 -0.006124938 -0.05989457
0001f0 68 80 78 bd c9 36 53 bd 8d d9 f7 bc 07 e0 8e bd
       -0.060669333 -0.05156592 -0.030255103 -0.069763236
000200 7d c7 97 3d 0c b4 8f bc 9a bf 9b 3d 0a 9c e1 3c
       0.07411096 -0.017541908 0.076049045 0.027540226
000210 60 49 99 bd 23 8b 7a 3d e3 39 c7 bc 63 c7 0a bd
       -0.07484698 0.061167847 -0.024319595 -0.033881556
000220 41 42 96 bd 59 f6 b3 bd 8e 2a cf 3c 96 2b 9e bc
       -0.07336856 -0.087872215 0.025288846 -0.019307893
000230 35 f3 0c 3d 53 8e 94 bd df 64 86 3d bf e0 84 bd
       0.034411628 -0.07253709 0.065622084 -0.064881794
000240 e9 35 d4 bb 54 9b dd 3c 15 e5 62 3d 7c 14 a5 3d
       -0.006476153 0.027051605 0.05539425 0.08060548
000250 74 73 b7 3d da 11 7a bd 42 3d 00 3d a9 03 ed bc
       0.08957568 -0.06105218 0.03130842 -0.02893241
000260 22 b0 13 ba ba dd 6a bd 01 6e b7 3d 15 90 64 bd
       -0.0005633851 -0.05734036 0.089565285 -0.05580147
000270 f5 7d 41 3d 2e 78 fe 3c 11 4b eb 3c 1e bc 43 bd
       0.047239263 0.031063166 0.028722318 -0.047786824
000280 ad 89 a4 3d c5 1d 9f 3c 6b 4a 3a 3c 2f 86 9f bd
       0.08034072 0.019423375 0.011370282 -0.07789265
000290 cb fa 17 3d c7 40 59 bc d4 db 25 bd 66 7c 9b 3d
       0.03710441 -0.013260073 -0.040492848 0.075920865
0002a0 7a 42 24 3d fe 17 e9 bc 25 82 c8 bc ae ff 83 3c
       0.04010246 -0.028453823 -0.02447612 0.016113129
0002b0 6f 9f 8e 3d fd a3 12 bb 42 9d f6 bc 8e da 23 bc
       0.06964003 -0.0022375577 -0.030104283 -0.010000838
0002c0 a1 3b 3b bd 0e 86 53 3d fc b5 b5 3d b3 ca 80 bd
       -0.045711163 0.051641516 0.088726014 -0.06288662
0002d0 df 2a a8 3c b5 06 3b 3d e7 4b 83 3c 4f ee 00 bd
       0.020528255 0.045660693 0.016027404 -0.03147727
0002e0 97 f6 3c 3d 8f 41 3e 3d 49 60 07 3d c6 78 7e bc
       0.046133604 0.04644924 0.03305081 -0.015531724
0002f0 91 bc bf bc c7 ec 1a 3c 8d d2 7f bc 9b c6 d7 bc
       -0.023405345 0.009455866 -0.015614164 -0.02633982
000300 f0 86 24 3d 31 3d 75 3d 53 52 ce bc 0f 57 13 bd
       0.04016775 0.05987281 -0.02518574 -0.035971697
000310 d9 9c 75 bc b8 84 b0 bc f6 57 a1 3b e9 bf 0a 3c
       -0.014991009 -0.02154766 0.004923816 0.0084686065
000320 c4 0f c5 bd 3c 85 47 bd b3 30 6e 3d c0 b4 94 3c
       -0.09622148 -0.048711047 0.058151912 0.018152595
000330 cb 85 85 3b ee 2c 37 bd 2a 08 3a bd a2 79 90 bd
       0.0040747873 -0.044720583 -0.045417942 -0.070544496
000340 0f c4 a4 bc 67 e7 1d 3d c6 38 85 3d 77 fb 4a 3d
       -0.02011302 0.03855076 0.06504969 0.04955622
000350 76 80 8e bd 0a 6b 35 bd 38 76 ac bb cc e1 c0 3d
       -0.06958096 -0.044291534 -0.005263116 0.09418067
000360 24 bf 2d 3d 2c b0 de 3b 06 2c 88 3d e6 01 81 bb
       0.042418614 0.0067959037 0.06649022 -0.003936994
000370 4e 68 e1 bc 88 d5 c0 3d 16 c9 2b bc 8a f7 42 3c
       -0.027515557 0.09415728 -0.010484954 0.011899838
000380 56 21 6e bd 77 58 b5 3d 86 fa c5 3d cc 66 7d 3d
       -0.05813726 0.08854764 0.09666924 0.061865613
000390 b3 70 7c bd bb a7 b2 bd 25 05 93 bd 75 fc 86 3d
       -0.061630916 -0.08723398 -0.071787156 0.06591121
0003a0 1d d1 2d 3d 1d 54 98 3d 41 a9 3d 3d 20 42 b7 3c
       0.042435754 0.07437918 0.04630399 0.022370398
0003b0 b3 e6 62 ba 92 aa 89 bd a3 17 9b bd f2 50 a9 bd
       -0.00086555927 -0.06721987 -0.07572868 -0.08267392
0003c0 72 34 14 3d d8 bf 31 bd f1 b8 91 bc eb 5a 50 bd
       0.03618283 -0.043395847 -0.017788382 -0.050867956
0003d0 a7 f1 83 bc c1 d0 7e bd ce 8f 6c bd 2d 2f f0 3c
       -0.01610644 -0.062210802 -0.05775433 0.02931937
0003e0 73 31 d7 bc 8a 80 5f 3d 55 4a e8 bc 34 ca 84 bd
       -0.026268696 0.054565944 -0.028355757 -0.0648388
0003f0 c5 33 f1 bb ea 99 0e bd 12 00 95 bc b3 88 9a bd
       -0.0073609077 -0.034814753 -0.01818851 -0.075456046

rnn.weight_hh_l0 f4 [128, 128]
000000 76 1f be 3c 35 73 13 bd e8 00 56 bd 5c 11 19 bd
       0.023208361 -0.03599854 -0.052246958 -0.03737007
000010 93 d7 21 bd 46 be 9a 3d 46 1a 09 3d 5c a5 93 3d
       -0.03951223 0.07555823 0.033472322 0.07209274
000020 ad 84 0d 3d 8d 73 f8 3c a6 14 3f 3d da c5 d0 3c
       0.034550358 0.030328536 0.04665055 0.025484968
000030 f6 2e a3 bd bc 2b 80 bd 50 90 50 bc 8c 39 13 bc
       -0.079679415 -0.06258342 -0.012729719 -0.008985888
000040 65 3d d6 3c 03 4e c2 3c 9a f5 a1 3d 87 9e fb 3b
       0.026152322 0.02371884 0.07908173 0.00767881
000050 03 a0 a2 bc 73 41 9d bd 3b e9 5e bd a8 02 2e bd
       -0.01985169 -0.07678499 -0.054421645 -0.042483002
000060 e7 70 17 3d 3a d9 6d 3d 75 40 89 3d a8 99 91 bc
       0.036972906 0.05806849 0.06701747 -0.017773464
000070 57 0d 0a 3b 06 7c 0f bd 6b 49 2e bc a5 ee 93 3c
       0.002106508 -0.035030387 -0.010637621 0.01805813
000080 63 79 2c bc 56 73 6a bb 4e 7a 67 3a 79 29 b9 3c
       -0.010526988 -0.0035774312 0.00088301755 0.022602784
000090 ba b0 92 bc fb de 28 bd f8 a6 43 3c af 31 95 bc
       -0.017906535 -0.041228276 0.011941664 -0.018212168
0000a0 91 87 f3 bc 8a 96 db 3c eb 22 36 3c 9a ac b1 bc
       -0.029727729 0.026805181 0.0111167235 -0.021688748
0000b0 85 81 59 bd f3 c2 b3 bc b3 0c af bd dd 37 f9 3c
       -0.053102035 -0.021943545 -0.08547344 0.030422146
0000c0 3f 6a 14 bc 35 f9 82 3d 6f 40 83 3c a4 63 8e 3c
       -0.009058534 0.06395189 0.016021935 0.017381497
0000d0 77 df 0c 3d c6 95 72 3d 42 55 55 bd db e3 2d 3d
       0.0343928 0.059224866 -0.05208326 0.042453628
0000e0 26 ca 02 3d ef 45 47 bd 85 61 1f 3d fd 06 7e bd
       0.031931065 -0.04865068 0.03891136 -0.062018383
0000f0 e0 b6 25 bd dc 52 02 bd aa c3 8c bd a3 b0 a3 3d
       -0.040457606 -0.031817302 -0.068732575 0.07992675
000100 af ac 8c bd 0e 46 5f 3d 95 cb 8d bd 87 da 90 3b
       -0.06868874 0.05451017 -0.06923596 0.0044205817
000110 a9 3f a5 bb 19 d0 95 3d 2d 26 bd bc d5 d2 77 3c
       -0.0050429893 0.07315082 -0.023089493 0.01512595
000120 5d a9 c4 3c e9 c4 2a 3d 1e cd a5 bb 20 9a 2b 3d
       0.02400654 0.041691694 -0.0050598523 0.041895032
000130 8f cf 3e bd 52 d3 8f bd 35 6d b6 3d f3 06 99 bd
       -0.046584662 -0.07022728 0.08907548 -0.074720286
000140 fe 10 c5 bc 30 06 ac bc f4 dc 9b 3d e3 f6 0f bc
       -0.024055954 -0.020999044 0.07610503 -0.00878689
000150 69 5f 69 bd 92 a5 00 bd c4 1e 0f 3d 77 72 ca 3c
       -0.056975756 -0.0314079 0.03494145 0.024712784
000160 ab a1 80 3d 53 a7 b6 bc ad 49 00 3d cd 54 bf bd
       0.06280836 -0.022296583 0.031320263 -0.09342346
000170 40 58 36 3d af 97 50 3d 7b 9a 39 3d 00 5c 25 bd
       0.044517756 0.050925907 0.04531334 -0.04037094
000180 c6 e7 0a bd 38 d6 01 3d 67 05 57 bd 01 2f 7b bd
       -0.033912443 0.031698436 -0.052495386 -0.061324123
000190 1b e0 9b bd 80 4f b0 bb e5 8f 36 3d 59 1a 01 3d
       -0.07611104 -0.005380571 0.044570822 0.031519268
0001a0 26 a4 80 3c 26 ca a7 3c ac e0 86 bd d6 93 82 ba
       0.015703272 0.020482134 -0.065858215 -0.0009962271
0001b0 d8 ce 56 bc 92 82 5d bd 03 3b b1 3d a1 2b a1 bd
       -0.013110839 -0.0540796 0.08653834 -0.0786965
0001c0 23 9c be 3c 8b f0 89 bd 0c 6a c4 3b 8b 8b 29 bd
       0.023267811 -0.06735333 0.005994087 -0.041392844
0001d0 cd 69 21 3d f7 8e 26 bd 5e 78 3d 3d 67 21 a8 bd
       0.03940754 -0.040663686 0.04625737 -0.08209496
0001e0 dc d9 81 3d 31 1a 9d bd 5b a7 17 3d 4f 62 dc bc
       0.063403815 -0.07671011 0.037024837 -0.026902346
0001f0 23 9f 25 3c 45 e7 df bc a0 b9 40 3d 6e cd 98 3c
       0.010108742 -0.027331958 0.047052026 0.018652644
000200 d9 73 64 bd ac 39 93 bb 1f 26 53 bd 98 77 46 3d
       -0.055774543 -0.004492959 -0.051550027 0.048453897
000210 8a d8 cd 3c d9 be 24 bd 21 18 84 bd 3e b4 0e 3c
       0.025127668 -0.04022107 -0.06449915 0.008709965
000220 ff 7d fc bc b9 23 83 3d 0f 11 90 3d 2e 66 9c 3d
       -0.030821798 0.06403298 0.07034504 0.07636677
000230 00 04 80 3a 5d bf cb bd 3d 10 7b 3d 09 e4 4a bd
       0.0009766817 -0.09948609 0.061294783 -0.049533878
000240 82 ec 60 bc 8b 79 01 bd 4f 32 a8 3d a7 cd 3b 3d
       -0.013728263 -0.031610053 0.082127206 0.045850422
000250 21 7b 12 3d df 56 a4 3c 62 d7 76 bd b1 dd b6 3c
       0.035761956 0.020060955 -0.060264 0.022322508
000260 3d b6 65 bd 2b cc 55 3d 86 41 ae bd b5 82 94 bc
       -0.056082 0.052196663 -0.08508591 -0.018128732
000270 9b 05 a3 3d 90 84 b9 3d 25 f8 99 bd af c1 91 bd
       0.079600535 0.090584874 -0.07518033 -0.0711702
000280 cf c7 92 3c bb 9d 40 3d 3e 8b 15 bd 97 a3 4b bd
       0.017917542 0.047025423 -0.036509745 -0.04971656
000290 96 6a 26 bd 02 ad 74 3d a2 b5 8d 3d 9a e4 ea bc
       -0.040628992 0.059735306 0.06919409 -0.028673459
0002a0 4e ab 82 3d db 7a ac 3c 9f ca be 3d 6a 37 7f bc
       0.0638033 0.021054676 0.09315991 -0.015577177
0002b0 43 59 9e bc 5b 69 2f 3d 95 45 0a 3d 3a 15 e0 3d
       -0.019329673 0.042825084 0.033757765 0.10941549
0002c0 72 4f 42 bd ed d4 69 3d b8 b0 ab 3d 05 2e 1b bd
       -0.047439046 0.057087827 0.08383316 -0.037885685
0002d0 02 80 22 3d e9 0f 5e bc 3d 26 0e 3d e5 2d 7d bd
       0.03967286 -0.013553598 0.034704436 -0.061811347
0002e0 f7 f0 e7 3c 3c 98 99 3d ea a5 b7 bd df d6 bc bd
       0.028313143 0.074997395 -0.089671925 -0.09220671
0002f0 90 d5 89 bd d2 65 a1 3d 5a 27 86 3d 07 af 1c bd
       -0.06730187 0.07880749 0.065504745 -0.038252857
000300 31 9d 1f 3d e9 84 ca bc 4d ed 9a bc d5 13 c9 3d
       0.03896827 -0.02472158 -0.018911982 0.09818236
000310 97 94 a8 3c 3e f0 06 bb 0c 8a f4 3c 22 71 a3 bb
       0.020578666 -0.0020589973 0.029850982 -0.0049878517
000320 d6 61 2f 3d f9 7e 56 bd 75 e3 97 bd d8 a1 94 3d
       0.042817913 -0.052367184 -0.07416431 0.07257432
000330 41 16 9e ba 4f 26 b0 3c 05 26 3a bc bf 90 a9 3c
       -0.0012061076 0.021502642 -0.011361604 0.020698903
000340 ac 86 3f 3d bd 9a 01 3d 15 a8 fb 3a 01 64 df 3d
       0.046759292 0.03164171 0.0019199873 0.10907746
000350 6b 92 b3 3c 9b 7a a9 3a 72 80 7d 3d b0 a4 82 3d
       0.021920403 0.0012930216 0.061890073 0.06379068
000360 17 70 73 bd 0c ae c8 3d 33 25 2c 3c 2a 9e 04 bd
       -0.05943307 0.09798822 0.010506916 -0.0323774
000370 4f 58 cb 3d 0b f0 c1 bc 3c 27 11 3d 3c ab e0 3d
       0.09928953 -0.023674032 0.035437807 0.1097016
000380 65 23 aa bd ff 1d f6 bc f5 15 86 bd de 82 ba 3a
       -0.08307532 -0.0300436 -0.06547157 0.0014229675
000390 db a9 81 bd 23 d5 53 bd 97 af 9a 3b f4 55 8a 3d
       -0.063312255 -0.051716935 0.004720639 0.067546755
0003a0 7d 1f 92 3d 0f c4 dc 3c f4 79 6e 3c 25 90 9d bd
       0.07134912 0.026948957 0.014555443 -0.07693509
0003b0 66 e8 6a bd cd 23 97 bc 83 2e d9 3d c3 62 8c bc
       -0.05735054 -0.018449688 0.106045745 -0.017136937
0003c0 4f c1 6d 3c bd 26 1b bd 44 05 d8 bc f3 e0 36 bd
       0.01451142 -0.03787874 -0.026369698 -0.044648122
0003d0 ac 39 be 3d ed b5 3e 3b f0 33 cd bd 3d 7b 4e bc
       0.09288344 0.0029100135 -0.10019672 -0.0126026245
0003e0 53 b3 e9 3c a4 4e 07 bd 93 13 1c 3c 25 a3 8e 3d
       0.028527891 -0.033033982 0.009526151 0.06964711
0003f0 1b e3 79 bd 0c e9 b7 bd ad f0 d7 bc 62 1e d5 bd
       -0.0610076 -0.08979997 -0.02635988 -0.10406186

rnn.bias_ih_l0 f4 [128]
000000 2d 3d 01 3d 05 19 a9 bd 18 ae 8c 3d 94 cf 2d bd
       0.031552482 -0.08256725 0.06869143 -0.04243429
000010 fb 2b 3f bd e7 28 af bc 42 ea c7 3d cf d8 08 bd
       -0.046672802 -0.021381808 0.09761478 -0.03340989
000020 9c 0d 22 b9 25 4f 2a bc f1 e4 d8 bc 6d f8 26 3d
       -0.00015454594 -0.010394846 -0.026476355 0.04076426
000030 91 84 6b 3c f7 82 94 bd 37 80 94 3c e9 b9 64 3d
       0.014374868 -0.07251542 0.018127544 0.05584136
000040 c2 5b 6e bd 64 9d b2 3d de 9b 30 bd 03 38 f5 3c
       -0.058192976 0.08721426 -0.043117397 0.029933935
000050 c1 80 60 3d a6 48 22 3d 4d f2 d8 3c 61 f9 54 3c
       0.05481029 0.039620064 0.026482726 0.01299891
000060 da 87 98 bc 18 7b 5f 3d 94 85 a0 bc 11 06 92 3d
       -0.018619467 0.05456075 -0.019594945 0.07130063
000070 4e 9c f1 3d 99 60 c9 bd d9 4f 96 3d 86 2d b4 3c
       0.11797391 -0.09832878 0.073394485 0.021994364
000080 a7 e5 a6 bd 3f e4 89 bd dd c3 47 bc 79 29 b7 3d
       -0.081492715 -0.067329876 -0.012192694 0.08943457
000090 2b 15 a4 3d 8d d8 0b bd 3b db a2 bd 9f dc 97 bd
       0.0801185 -0.034142066 -0.07951971 -0.07415127
0000a0 53 a7 5a bd 5a 40 03 bb d8 c2 af bd 1c 81 cf bd
       -0.05338223 -0.002002737 -0.08582085 -0.101320475
0000b0 16 59 63 bd 02 8b c7 3c 60 84 00 3d d8 86 d5 3c
       -0.05550488 0.024358276 0.031376243 0.026065275
0000c0 7a 0b ac 3d 69 46 af 3c 60 96 0c bd 55 9a f9 3c
       0.084006265 0.021395879 -0.034323096 0.030469099
0000d0 cd ed 28 bd e4 1a 6f 3d 11 f6 0a bd 8a 1d 62 bd
       -0.04124241 0.058375254 -0.033926073 -0.055203952
0000e0 3f e0 8a bc 39 e8 49 bd c7 0a 4c 3c 73 19 4f bd
       -0.016952632 -0.04929373 0.012453741 -0.05056138
0000f0 f4 2d a8 3c 8c e5 ab bc a3 a9 a6 bd 2e 95 a9 bd
       0.020529725 -0.02098348 -0.081378244 -0.08280407
000100 be de 82 bd bb 3d ad bd c8 83 b4 bd 0d b0 95 3d
       -0.06390141 -0.0845904 -0.08814198 0.0730897
000110 b7 61 7b 3d a0 26 24 3d 37 9d a9 3d 97 14 dc 3c
       0.061372485 0.0400759 0.082819395 0.026865287
000120 4c ca 17 bd 05 da 33 bc 59 85 e2 bc 6d 2e 80 3d
       -0.03705816 -0.010977273 -0.027651476 0.06258855
000130 20 23 26 3d ed 90 ca bd ec 0b 61 3c 22 5b 8b bd
       0.04056084 -0.09890924 0.013735753 -0.068044916
000140 1e 61 03 3d 23 54 1d 3c c6 45 17 3c 99 08 80 bd
       0.03207504 0.009602579 0.009232944 -0.0625164
000150 5d 59 9e 3b 08 3f af bc 28 b1 0b 3d 83 32 5f bd
       0.0048324303 -0.02139236 0.034104496 -0.05449153
000160 32 68 ec bc 2c 32 99 bd 53 51 62 bd 4f 09 42 bd
       -0.028858278 -0.07480273 -0.055253338 -0.04737216
000170 ba 0f a6 bd 25 d9 b1 3d df b1 90 bd 0c 99 bd bc
       -0.08108468 0.08683995 -0.07065176 -0.023144267
000180 c7 b0 c2 3b 2c cb 11 bd b7 79 07 bd 77 05 95 3d
       0.0059414837 -0.03559415 -0.03307506 0.07276433
000190 33 04 bc 3b bc 24 2b bc 6e f6 b1 3d 28 44 1b bc
       0.0057378053 -0.01044577 0.08689581 -0.009476699
0001a0 f5 7e 4d bc 4c 52 66 3d f9 cb a9 bc 6c 65 90 bd
       -0.012542476 0.05623083 -0.020727145 -0.07050595
0001b0 50 77 bc 3d 7f 01 9c bd 01 6a b2 bd c4 e7 39 bd
       0.092024446 -0.07617473 -0.08711625 -0.045387045
0001c0 99 19 40 3c 66 ab 92 3d d9 62 1c bd 62 93 71 bd
       0.011724853 0.07161598 -0.038180206 -0.058978446
0001d0 07 c0 91 3d e9 be c6 3d 90 ee 19 3d 5f f4 81 bd
       0.071167044 0.09704382 0.037581027 -0.06345438
0001e0 de f6 46 3d 01 10 b8 bb 1b 22 8b bd d1 e5 77 3d
       0.048575275 -0.005617142 -0.067936145 0.060521904
0001f0 c2 9d 77 bd dc 9e d8 3c d2 41 45 bd ac d5 a7 3d
       -0.060453184 0.026442938 -0.048158474 0.081950516

rnn.bias_hh_l0 f4 [128]
000000 83 f7 f7 bb a5 1a 34 bd 64 6b 00 3d 3f d6 58 3d
       -0.0075673475 -0.043970723 0.031352416 0.052938696
000010 39 2e cb bc 6b 3c d8 3c 55 1b 9d bc 77 f7 15 bd
       -0.024802314 0.026395997 -0.019178072 -0.036612954
000020 41 3d 64 bd e3 c4 ad bd c9 21 a0 3d 17 50 b3 3c
       -0.05572248 -0.08484819 0.07818944 0.021888776
000030 2c 79 5a bd 0f f5 9c bd 9c 2c 9b 3d ec 06 8a 3b
       -0.053338215 -0.07663929 0.07576868 0.004212251
000040 f8 12 9d bd 77 c1 0c b9 67 4f 1f bb df ac 3c 3c
       -0.076696336 -0.00013423512 -0.0024308802 0.011515825
000050 aa a9 15 bd 00 0f 06 bd f0 b6 76 bd 40 79 15 bd
       -0.036538757 -0.03272915 -0.060233057 -0.036492586
000060 c3 e6 b9 3a b5 31 0c 3d 9c 3e 9a 3c 50 b8 5a 3d
       0.0014183152 0.03422709 0.018828683 0.05339843
000070 78 5b be 3b 6d 2c 56 bd 34 5d 53 bd c4 0d 9c bd
       0.005809244 -0.05228846 -0.051602557 -0.07619813
000080 78 7f 9a bd 86 e3 15 bd 6d 76 aa 3d d1 77 a2 bd
       -0.07543844 -0.036593936 0.08323369 -0.079330094
000090 3e fd bc 3d dd 48 0e 3d 67 44 8d 3c ff d4 f5 3c
       0.092279896 0.034737457 0.01724453 0.030008791
0000a0 fb bb 1e 3d a8 8b 9c 3d 40 b8 c1 3c 64 31 27 bd
       0.03875349 0.07643825 0.023647428 -0.040818587
0000b0 1b c1 09 3d 0a dc d7 bb f8 47 2f bd 5f 9a 04 3d
       0.033631425 -0.00658751 -0.042793244 0.032373782
0000c0 01 82 ca 3d 82 c9 87 3d a7 17 1c bd f0 f5 4b bc
       0.098880775 0.066302314 -0.038108494 -0.012448773
0000d0 9e a4 0a 3d d6 e1 eb 3c 82 9a 9d bd 83 14 45 3c
       0.033848397 0.02879421 -0.07695486 0.012028816
0000e0 66 fd 2a bc ff b1 ad 3d 49 46 3e 3d 45 8b 9a bd
       -0.010436391 0.08481216 0.046453748 -0.07546095
0000f0 cd 63 93 bc ee a5 80 3d dc 37 3c bd a2 97 86 3c
       -0.017991925 0.062816486 -0.04595171 0.016429726
000100 67 58 9e 3d c4 c8 a4 bd b0 49 ed bb 52 34 bd bd
       0.07731705 -0.080461055 -0.0072414503 -0.09238495
000110 e5 29 8d bc 31 ce 04 3d 05 a1 d4 3c b6 7f 33 3d
       -0.017231891 0.032423202 0.025955686 0.043822967
000120 e4 4a 8b bd c7 4d 21 3d db d1 f3 bc c1 e2 a3 3d
       -0.06801394 0.039380815 -0.029763153 0.08002234
000130 a2 72 a8 bb 2b 3c 43 3d 58 cd e8 3b 15 b7 f7 3c
       -0.0051406184 0.047664803 0.007104557 0.030238668
000140 d1 78 cf bd 69 04 54 3c 8b 44 9b 3d 0e 29 9f bd
       -0.10130466 0.012940505 0.07581433 -0.077715024
000150 8b dd 67 3d 9d e5 a0 39 8c b4 d6 bc 02 ca 4d bd
       0.056607764 0.00030688653 -0.026209138 -0.050241478
000160 ce 87 80 3d eb 49 24 bd a4 47 30 3d 90 59 42 3c
       0.06275903 -0.040109556 0.04303707 0.011862174
000170 8f fe 94 3d 04 3f 79 bd 80 7f 23 3a 83 7f 1e 3d
       0.07275116 -0.060851112 0.00062369555 0.038695823
000180 bd e8 28 bd e7 ec c6 bc c2 b0 e4 bc 14 db f1 3d
       -0.04123758 -0.024282886 -0.027916316 0.11809364
000190 63 e4 84 3d 1e e1 a7 bd a1 92 09 3d cf 89 c6 3d
       0.06488874 -0.081972346 0.0335871 0.09694254
0001a0 45 0d 13 3d 20 6e a4 3d 5b 5a 8f bc e9 d7 0f 3c
       0.035901327 0.08028817 -0.01749914 0.008779504
0001b0 ea f6 e1 3d da dc a6 3d e2 b7 d4 bc b3 86 98 3c
       0.11033423 0.08147593 -0.025966588 0.018618917
0001c0 63 59 6b 3b 5f bf 9f 3d cd f7 02 bc b1 30 d4 bc
       0.0035911433 0.07800173 -0.007993651 -0.025902124
0001d0 e1 ef c1 3c 46 66 6a 3c ef 8e 19 bd 36 6e b1 3d
       0.023673953 0.01430661 -0.037489828 0.08663599
0001e0 8f 50 06 bd ac 6d 5e 3d 03 0b a3 bc 16 65 c4 bd
       -0.03279167 0.05430381 -0.019902712 -0.09589593
0001f0 1b 46 7a bd f2 1e 0e 3d c9 a4 81 3d a8 32 b1 bb
       -0.061102014 0.03469748 0.063302584 -0.00540765

fc.weight f4 [1, 128]
000000 7b df cf 3e 8f b7 aa 3e 7b 6e c1 3e 66 de c8 3e
       0.4060019 0.3334317 0.37779602 0.39232177
000010 c2 1b cb 3e 3a 98 b8 3e 66 a8 cf be 43 bd d5 be
       0.39669615 0.3605364 -0.40558165 -0.41745958
000020 ce 46 d6 3e b1 22 dc 3e a1 64 c9 3e 71 5a c4 3e
       0.41850895 0.42995217 0.39334586 0.3835025
000030 4a de bc be b9 8b a2 be 85 2f bc be a2 4f b4 be
       -0.36888343 -0.31747225 -0.36755005 -0.35217005
000040 59 c3 d7 3e 80 e8 ce be 7c db c0 be 36 ec b5 be
       0.42141226 -0.40411758 -0.37667453 -0.35531777
000050 8c 00 ca 3e 75 7c dc be 36 34 cf 3e 2d 6a b4 3e
       0.39453542 -0.43063703 0.4046952 0.35237256
000060 db cf b7 3e 7c 6b ce 3e 38 84 9b be 3d 36 b0 3e
       0.3590077 0.4031638 -0.30374312 0.3441638
000070 58 57 a6 be 48 91 cd 3e 8b 0c c1 be f0 88 cb be
       -0.32488513 0.40149903 -0.37704882 -0.39752913
000080 63 e5 b7 3e bb bc cb 3e 14 f4 ab be ea 25 cc be
       0.35917196 0.39792427 -0.33584654 -0.39872676
000090 3c 56 c8 be 46 77 c7 3e c4 a4 ae 3e 98 48 c8 3e
       -0.39128292 0.38958186 0.3411008 0.39117885
0000a0 64 7d df 3e 86 0c cb be 93 74 c0 3e 7f c8 d0 3e
       0.43650353 -0.39657992 0.3758894 0.40777966
0000b0 78 cf b3 be 31 33 c3 be 8a b9 d5 be 67 1f b3 3e
       -0.35119224 -0.38124993 -0.41743118 0.34984896
0000c0 1b 52 c9 be 92 96 93 3e 5f 5e 87 3e a7 12 c5 3e
       -0.39320454 0.28825814 0.26439187 0.38490793
0000d0 9a de ab 3e 8c 4d bd 3e 4e 2b 9a be 1d 5f df be
       0.3356827 0.36973226 -0.30111164 -0.43627253
0000e0 a0 fd a1 3e ef b9 da 3e 86 59 b3 be 7b e8 b1 3e
       0.31638813 0.4271998 -0.35029238 0.3474768
0000f0 2c de da be c3 c2 db 3e 49 dd ba 3e 33 9e 92 3e
       -0.4274763 0.4292203 0.36496952 0.2863632
000100 59 06 bd 3e 50 3c cf 3e b3 c7 ca 3e e8 75 bd 3e
       0.36918905 0.40475702 0.39605483 0.37004018
000110 af fa c3 be 3a 3b a4 3e a1 dc c0 be 4c ea 85 be
       -0.38277194 0.32076436 -0.37668326 -0.26155317
000120 16 08 bb 3e 4b 97 a8 be 8c 89 cc be 47 e8 c5 be
       0.36529607 -0.32927927 -0.3994869 -0.38653776
000130 6a de b3 be de 84 b9 3e ce 88 d4 3e 9b d5 b6 be
       -0.35130626 0.36234182 0.41510624 -0.35709843
000140 54 96 a7 3e af 5d ba be 74 d9 bf be a9 9f df 3e
       0.3273188 -0.363996 -0.3747059 0.436765
000150 24 6b bd 3e 7e db c1 3e ca 1e df be fa ce ae be
       0.36995804 0.37862772 -0.43578178 -0.34142286
000160 c4 e4 c1 be d9 11 d5 3e 92 b6 9b be 0f 46 ae be
       -0.37869847 0.4161518 -0.30412728 -0.34037825
000170 80 94 ce 3e 6b 8a 97 3e 00 a4 c0 be 96 5d c9 3e
       0.40347672 0.29597792 -0.37625122 0.39329213
000180 74 b5 cc be 4c 47 bd 3e f6 1e c1 3e 6b e7 bd be
       -0.39982188 0.36968458 0.37718934 -0.3709062
000190 f3 80 b9 be 1c e4 d3 be 6d ca db be 6c 70 b3 be
       -0.36231193 -0.4138497 -0.42927876 -0.3504671
0001a0 71 9f c0 3e 71 97 a1 be ed bf 98 be 93 b9 ac be
       0.37621644 -0.31560853 -0.29833928 -0.33735332
0001b0 ca 93 bf be 3a 11 dd be ee d4 d9 3e ed 59 aa be
       -0.37417442 -0.43177205 0.42545265 -0.33271733
0001c0 4f 1e d5 3e 80 f4 87 3e d1 30 b1 be f7 a2 ba 3e
       0.41624686 0.26553726 -0.34607556 0.36452457
0001d0 2a d8 d7 3e 20 21 bf be b3 77 ca be ba ef d4 be
       0.42157108 -0.3732996 -0.39544448 -0.41589147
0001e0 f5 6a c9 3e ec e6 ae be a2 95 c3 be a6 93 d0 3e
       0.39339414 -0.34160554 -0.38200098 0.40737647
0001f0 fe c0 90 3e 8b 6c b7 be 14 17 c7 be 8c 81 bc be
       0.2827224 -0.35825 -0.38884795 -0.36817586
